src/nnue/64502525.pth (torch, 217633 bytes, 5 tensors)

fc1.weight f4 [64, 771]
000000 94 87 85 01 66 d6 58 3d a7 cc ea 3d 01 c0 d1 3d
       4.905103e-38 0.05293884 0.114648156 0.102417
000010 ca 0e 2b 3e 4e 77 aa 3d a8 b1 85 81 c4 18 9b bd
       0.1670486 0.08323537 -4.911141e-38 -0.07573083
000020 dc eb f7 bd 2f f1 f1 bd c5 79 76 be a0 94 1b 3e
       -0.121055335 -0.1181358 -0.24069889 0.15193415
000030 81 8e 85 81 4d b2 c9 3c c4 10 13 3d 17 e3 b0 3d
       -4.9060967e-38 0.024621153 0.03590466 0.08637064
000040 34 37 a0 3e bc f2 a1 bc 54 91 85 81 f2 0a 97 bd
       0.31292117 -0.019769065 -4.906502e-38 -0.073751345
000050 d3 a0 fb bd 4c f0 2d be b4 9a 82 be ea f8 52 3d
       -0.12286534 -0.16986197 -0.25508654 0.051506914
000060 f9 a1 85 81 a2 8c bf 3d 0a c8 68 3d 37 0c 82 3d
       -4.9088903e-38 0.093529955 0.056831397 0.06349986
000070 51 b1 0d 3e 98 de 3d 3d ac 94 85 81 33 2a fe bd
       0.13837172 0.04635486 -4.906982e-38 -0.124103926
000080 30 df 16 be 93 49 ca bd e7 b4 78 be 49 75 a9 bc
       -0.14733577 -0.098773144 -0.24287759 -0.020685809
000090 ae ae 85 01 1e d3 59 3d 00 a0 2f bd f2 3b cf 3d
       4.9107137e-38 0.053179853 -0.042877197 0.101188555
0000a0 5c f2 82 3e 34 d7 b4 bd fd b0 85 01 a2 4d c6 bd
       0.2557553 -0.08830109 4.911045e-38 -0.09682776
0000b0 58 4b ae bc 06 e6 1e be 72 4a 8d be 18 17 93 3d
       -0.021276161 -0.15517434 -0.2759586 0.07182139
0000c0 8c 92 85 01 99 b3 4c 3c b0 26 8f 3d 31 23 96 3d
       4.906677e-38 0.012493991 0.06989801 0.07330931
0000d0 00 f8 5a 3e b9 92 10 bb b5 90 85 01 2f 65 0d be
       0.21383667 -0.002206011 4.906413e-38 -0.1380813
0000e0 a3 bc bf bd 65 4a dc bd 9d c2 42 be 61 de 03 3e
       -0.093621515 -0.10756377 -0.19019552 0.128778
0000f0 28 a8 85 81 d6 78 ae 3d a5 99 88 3d 10 f8 89 3d
       -4.9097776e-38 0.085191414 0.0666993 0.06736767
000100 7d de 5a 3e 63 a7 10 bc 59 88 85 81 ac 3a 87 bd
       0.21373935 -0.008828971 -4.9052133e-38 -0.06602988
000110 45 3a ca bd 2b 72 37 be 9e 65 8b be 67 e5 ae 3d
       -0.09874395 -0.17914645 -0.27225965 0.08539849
000120 84 85 85 01 ee eb d0 3d 51 74 40 3d 7d 57 f1 3d
       4.904807e-38 0.1020125 0.046985928 0.11784265
000130 5c f5 bf 3e b7 e5 cd bb 6a b4 85 81 b8 60 90 be
       0.37491882 -0.0062834877 -4.9115365e-38 -0.2819879
000140 46 9f 10 be 5e ca 3d be 17 c4 86 be 94 cc 15 3d
       -0.14123258 -0.18534228 -0.2632148 0.036572054
000150 5a 9e 85 81 83 10 37 3e 0b 0a 69 3d ea 2b ad 3d
       -4.908371e-38 0.17877392 0.056894343 0.084556416
000160 16 9c 37 3e 99 ce 6c 3a 46 86 85 81 4c dd 55 bd
       0.17930636 0.0009033471 -4.9049157e-38 -0.052213
000170 6c ac 8b bd 14 4b 64 be 4e a4 61 be 7f 86 18 be
       -0.06819996 -0.22294265 -0.22035334 -0.14895056
000180 c6 c2 c9 3c 3d f2 1c bd f7 36 e3 3b 84 57 17 3e
       0.024629008 -0.038316954 0.0069340426 0.14779478
000190 5b 92 4e 3e d9 f4 23 3c 4e f8 ab bc 65 39 ae bd
       0.20173018 0.010007107 -0.020992424 -0.08507041
0001a0 8b fa bd bd 7f ed 0c be d2 1f 86 be 99 f5 ce 3d
       -0.09276303 -0.13762473 -0.26196152 0.10105438
0001b0 a0 77 56 3c 7a cf ed bd b6 2c bc 3c 37 5f d3 3d
       0.013090044 -0.11611839 0.022970539 0.10320895
0001c0 1c 2f 10 3e a7 3b b2 bb 4d 35 4b be df 03 ff bd
       0.14080471 -0.00543924 -0.19844551 -0.1245191
0001d0 47 c9 5c be 5d d7 16 be cd 7c b2 be 79 e2 c5 3b
       -0.21561156 -0.14730592 -0.3486084 0.0060389605
0001e0 ea 0d c6 3c 6f 7c e1 3d 36 28 68 bd 2f 88 cd 3d
       0.024176557 0.11010062 -0.056678973 0.100357406
0001f0 52 45 3a 3e f2 7d 2e bd 05 3e 36 bd 1e 5a 9c bd
       0.18190506 -0.04260058 -0.04449274 -0.07634376
000200 4b 84 a0 bd 2e a6 2a be d4 40 86 be 12 81 de 3c
       -0.07837733 -0.16664955 -0.26221335 0.027161155
000210 5f 09 63 bb 0d a1 c9 3d b6 e5 93 3d 94 3e ce 3d
       -0.0034643037 0.09845171 0.07221548 0.100705296
000220 d6 a7 3e 3e 24 de c9 bc 73 08 31 be 99 d9 31 be
       0.18618712 -0.024642058 -0.1728838 -0.17368163
000230 60 a9 1b be b5 00 11 be 13 67 ba be 0b b4 4e 3d
       -0.1520133 -0.14160426 -0.36406764 0.05046467
000240 d7 44 ad bb c6 71 c7 3d ea d9 54 3d 3c 39 b5 3d
       -0.0052877474 0.097384974 0.05196563 0.08848807
000250 8d 72 38 3e 64 3f 31 bc f4 bf 0f be c5 26 16 bd
       0.18012448 -0.010818336 -0.14038068 -0.036658067
000260 ff af b7 bd e2 ec 28 be f2 84 90 be 90 c9 da 3d
       -0.089691155 -0.16496614 -0.2822643 0.10682976
000270 82 19 05 3d 70 13 25 3d 22 0e 35 3d 61 81 d4 3d
       0.03249503 0.04030174 0.04420293 0.103762396
000280 4b 67 03 3d 40 f1 a7 bb da c3 1a be 3f 54 bc bd
       0.03208093 -0.005125195 -0.15113774 -0.09195756
000290 49 5c 27 be 29 24 35 be 00 4a 8f be f8 01 59 3d
       -0.16343798 -0.17689575 -0.27986145 0.052980393
0002a0 40 4a 28 3d aa a4 91 3d 28 7f 55 3c af d1 28 3d
       0.041086435 0.07111485 0.013030805 0.041215595
0002b0 b3 fd 16 3e 6a 6c 86 bd e6 8e 25 bd 8b 01 1d be
       0.14745216 -0.06563647 -0.04041948 -0.1533262
0002c0 5a 95 d2 bd 12 14 36 be ea c6 71 be dd e6 a6 3d
       -0.10282393 -0.17781094 -0.23611036 0.081495024
0002d0 c1 83 3a 3c df e1 7f 3d 07 a3 11 3d f8 fd a3 3d
       0.011383952 0.062471267 0.035555866 0.08007425
0002e0 b9 9d 81 3e ed 61 0a 3d d6 46 01 be 2a 20 95 be
       0.25315645 0.033784796 -0.12624678 -0.29126102
0002f0 3b 4b 0c be a9 51 35 be 5d b8 4c be 95 b6 9d bc
       -0.13700573 -0.17706932 -0.19992204 -0.019252101
000300 b4 8c d8 3c 9f d5 8e 3d 1b fd 11 bb 83 0d 88 3d
       0.02643428 0.06974339 -0.0022276107 0.06643202
000310 01 f4 52 3e 7d 7d 4e 3c 11 62 ca bd e8 34 87 bd
       0.20600893 0.012603161 -0.09881986 -0.06601888
000320 62 0d 02 be 17 ca 3f be 6a 42 57 be 68 de ef 3c
       -0.12700418 -0.18729435 -0.21021429 0.029280856
000330 b7 b2 38 3c ad 96 22 3d fd 25 aa 3d a1 3d 22 3d
       0.011273078 0.039694477 0.08308027 0.039609555
000340 f2 d0 25 3e b2 33 15 3c c8 a1 c5 bc 11 04 09 be
       0.16192988 0.009106563 -0.024124995 -0.13380457
000350 24 e1 ed bc 5e d7 42 be 55 9d 94 be 48 09 9a 3c
       -0.02903802 -0.19027469 -0.29026285 0.018803254
000360 d3 12 c6 3c ca 3f 21 3d cc 66 fb 3c 56 4e 20 3d
       0.024178898 0.039367475 0.030688666 0.039137207
000370 07 e6 05 3e c4 f3 53 ba 51 96 b7 bd 0c ae 04 be
       0.1307603 -0.0008085335 -0.089642175 -0.12957019
000380 71 26 ef bd cb ec 11 be 41 b6 99 be e7 a4 9c 3d
       -0.11677254 -0.14250486 -0.3002186 0.0764864
000390 9a 84 60 3d 87 64 48 3b a6 19 f3 bc 5c 90 fa 3c
       0.05481396 0.0030577497 -0.029675316 0.030586414
0003a0 f6 8b 51 3e c4 69 96 3c 8f 1e 8d bd 4a be de bd
       0.20463547 0.01836098 -0.06890594 -0.108761385
0003b0 d9 af 04 be 76 dc 01 be d9 78 9a be 36 a0 dd 3d
       -0.12957706 -0.12681755 -0.30170324 0.108215734
0003c0 2e a0 5a 3d b2 cf c7 3b 30 a1 50 bd 25 c0 78 3d
       0.053375416 0.0060977573 -0.05093497 0.06073012
0003d0 ca 77 03 3e 59 b2 74 3a 36 87 28 bc 0b db da bd
       0.12838665 0.0009334437 -0.010286143 -0.106863104
0003e0 29 41 39 be dd 1d 0e be 0c 42 96 be 3d 36 54 3c
       -0.18091263 -0.1387858 -0.29347265 0.012952385
0003f0 35 15 60 3d aa 46 cb 3c 62 48 01 3d e8 93 ff 3d
       0.054707725 0.024813969 0.03156317 0.12479383

fc1.bias f4 [64]
000000 4d 27 46 3d 08 40 8a bd c7 8a 44 be 9d df 01 3e
       0.048377324 -0.06750494 -0.19193564 0.12682958
000010 ea 4d 1b be 4d 8f fc bd 22 fc a0 bd 39 8a 07 bd
       -0.1516644 -0.1233202 -0.078605905 -0.033090804
000020 ed 26 50 3d d9 0e 36 3d fa d4 e6 3d 60 11 89 bd
       0.050818373 0.044447754 0.11271091 -0.06692767
000030 fa 42 4f bd b4 13 17 bd dc fe e6 3c 32 d1 44 bd
       -0.050600983 -0.036884025 0.028197698 -0.048051067
000040 b9 22 e2 bd 08 06 f1 bd b1 89 10 bd 70 c2 69 bd
       -0.11041779 -0.117687285 -0.035287563 -0.057070196
000050 7c 55 c0 bc cd 39 4b 3d 3b 04 43 3d fe bc ea bd
       -0.023478262 0.04961567 0.047611456 -0.11461829
000060 63 e7 3f bb fd e8 86 3b 26 c5 6d bd 40 46 93 bd
       -0.0029282204 0.00411713 -0.058049344 -0.071911335
000070 0a 23 83 3d b6 2f 05 be 09 d1 dc be 42 a7 65 bb
       0.064031675 -0.13006482 -0.4312823 -0.003504232
000080 a1 1c 01 3e 79 11 58 bd 77 72 10 3e df b0 8a 3d
       0.12608577 -0.05275104 0.14106165 0.06772017
000090 af f6 82 bd a2 c7 8d bb 95 35 23 3e 5c 94 fe bd
       -0.063947074 -0.0043267766 0.15938409 -0.12430641
0000a0 20 d2 80 bd f8 59 c3 be 6f ad 91 3a a1 7b 3a be
       -0.06290078 -0.38154578 0.0011114309 -0.18211223
0000b0 df 41 dc 3d 45 5c 35 bd c1 ac 3c be ce 1b 49 bd
       0.107547514 -0.04427745 -0.18425275 -0.049098782
0000c0 92 1d 7f be 10 d3 6b 3e a7 e3 24 3e 66 32 af 3c
       -0.24913624 0.23029733 0.16102467 0.021386337
0000d0 af 68 b5 3e e5 4e 25 3d 8e 7b e1 bb 80 57 00 3d
       0.3543143 0.040358443 -0.006881184 0.031333447
0000e0 df ca 02 3d c5 be 31 be 60 0d 8a 3e 50 27 30 bd
       0.031931754 -0.17357929 0.2696333 -0.04300624
0000f0 56 5c e8 3d 37 8b 31 3d ba 92 7f bd b8 e8 26 3e
       0.11345737 0.043345656 -0.06239579 0.16299713

fc2.weight f4 [64, 64]
000000 1a 7b b7 3e ae bc a8 be bf c1 48 3c 54 6a 83 be
       0.35836107 -0.3295645 0.012253224 -0.2566706
000010 cc a5 18 3e d6 c1 c4 be ae 64 9c bd e4 ba 8b be
       0.14906996 -0.38429135 -0.076363906 -0.27291024
000020 96 54 a5 bd 07 7e 1e be 4d c0 9c 3b 62 7c db bc
       -0.08072774 -0.15477763 0.004783666 -0.026792709
000030 95 b3 d4 3e a2 84 2d bd 64 c0 2e bd d6 dd 2b 3e
       0.4154326 -0.042362817 -0.042663947 0.16783842
000040 1c 01 82 be 5c fd 16 be bb c8 58 3e 6c 41 c1 3d
       -0.2539147 -0.14745086 0.21170323 0.09436306
000050 91 a4 8f bd 88 8f 63 3e be 56 ac 3d 9a 6c 8d be
       -0.070138104 0.22222722 0.08414982 -0.2762192
000060 31 ef ce bd 68 a7 b4 3d d0 d1 8c 3e 25 cf 44 be
       -0.10104216 0.08820993 0.27503824 -0.19219644
000070 0b a6 a3 bd 9f cc b3 3d b5 44 a3 3e 24 d9 ac be
       -0.079906546 0.08779263 0.31888357 -0.33759415
000080 8e 13 9e bd a0 63 28 be f3 cf 4d 3d 63 2b e3 bb
       -0.077185735 -0.16444254 0.050247144 -0.0069326623
000090 10 e0 ad bc 57 94 91 be f2 dd ed bd 59 8a 15 3d
       -0.021225005 -0.28433487 -0.11614598 0.03650889
0000a0 d9 22 c0 be b5 da f6 3c 21 47 16 3e a6 43 7a 3d
       -0.37526587 0.030133585 0.14675571 0.06109967
0000b0 30 04 a0 3e 22 f3 c7 3e b8 ac b4 bd 25 cd 72 bd
       0.31253195 0.39052683 -0.08822006 -0.059277672
0000c0 02 d0 4e 3d 5d a5 a0 bd 4b 6a 01 3e af 65 18 be
       0.05049134 -0.078440405 0.12638204 -0.14882539
0000d0 69 96 59 3e 94 de aa 3e cc 9c 47 3e 38 1e a2 bc
       0.21248783 0.3337294 0.19493407 -0.0197898
0000e0 7d 3d a9 3d b9 a8 c6 3d 50 8f bf 3d f6 a8 d0 bd
       0.08263681 0.0970015 0.093535066 -0.10188477
0000f0 00 0e a9 bd 25 4b 83 3e 15 cb bb be dd 90 78 3e
       -0.082546234 0.25643268 -0.36678377 0.24274011
000100 56 fe 1f bf 51 7b b7 be 6b d0 b0 3c f4 25 49 3e
       -0.6249746 -0.3583627 0.021583756 0.19643384
000110 7a 38 26 3e 41 2f f7 be fe 45 c1 be dc b2 30 3f
       0.16232482 -0.4827824 -0.37748712 0.6902292
000120 51 34 81 3d e2 b1 48 bd 50 72 74 be ee 42 2c be
       0.06308807 -0.048997767 -0.23871732 -0.16822407
000130 d3 7b 25 3e 6b 23 94 be 86 4b eb 3d b8 e1 72 be
       0.16160516 -0.28933272 0.11489014 -0.23718917
000140 ed 93 4b be 6d b6 e3 3d 34 71 63 3c c1 d1 6c bd
       -0.19880648 0.11118779 0.01388197 -0.057817224
000150 b2 9d 90 3d ab ee 9c 3e 56 7c 46 3e 48 1a 82 be
       0.07061328 0.3065084 0.19383368 -0.25410676
000160 2c 19 86 bd b1 d1 3c bd cd 9e 15 3e b3 86 1b bf
       -0.0654777 -0.046098415 0.14611359 -0.6075241
000170 94 b6 a6 bd bd e6 a0 ba 12 aa a8 bd 18 35 75 be
       -0.08140293 -0.0012275797 -0.08235563 -0.23946035
000180 7e 0f a4 bd dd bb 33 bd e4 9c a9 bc be 69 ca bd
       -0.080107674 -0.043880332 -0.020704694 -0.0988345
000190 84 41 f1 bd a5 1e 6a be f8 fc bc 3d 2e ce 08 3e
       -0.11780074 -0.22863252 0.092279375 0.13359901
0001a0 63 79 a9 be e9 e5 a1 bd 8d 7e 0e bd 03 8a 89 3e
       -0.33100423 -0.0790518 -0.034788657 0.26863107
0001b0 8f 78 01 bf 44 7c 60 3e c6 be cf bb 16 3f 5e be
       -0.5057458 0.21922404 -0.0063398806 -0.21703753
0001c0 86 01 23 3f 87 b1 ff 3d 6a 6a 03 3e 24 ab 08 3e
       0.636742 0.124850325 0.12833562 0.13346535
0001d0 b3 5c 83 3e 1a a5 2b 3e d2 f6 97 3e 9b 40 60 38
       0.2565666 0.167622 0.29680496 5.346593e-05
0001e0 56 f9 ef 3a 13 7c bd 3e 55 7a f1 3d 3e b5 10 3e
       0.0018308561 0.37008724 0.11790911 0.14131638
0001f0 fc 21 20 3c 88 85 a9 3e f1 5a 61 be 31 bb 99 be
       0.0097737275 0.3310969 -0.22007348 -0.30025628
000200 79 14 26 3d d1 4c 9e bd 0f 6f 48 3d 69 a5 e7 bc
       0.040546868 -0.07729495 0.04893404 -0.028277116
000210 96 62 08 be 51 27 02 3d c3 d4 30 3c c4 32 84 3e
       -0.13318858 0.031775776 0.010792914 0.2581998
000220 6d 28 da 3c 33 a4 60 bc 50 4c 5d 3d e8 73 b7 3c
       0.026630605 -0.013711023 0.054027855 0.022394136
000230 a1 78 4a bd 94 b0 4e 3e 3d 6a 16 bc ad ba 0b bd
       -0.049431447 0.20184547 -0.009180603 -0.034113575
000240 9e cf a6 bc 7c 21 81 be e6 3a 3f 3d 8c 9f 9b bd
       -0.020362671 -0.2522086 0.04668703 -0.075987905
000250 8b d0 dd 3d 01 87 b4 bc 85 5d b2 3d 8f c3 d8 3c
       0.10830792 -0.022037031 0.08709244 0.026460437
000260 13 05 e2 3c 63 1d a8 bd f5 e8 0a bd af 7a 95 be
       0.02759031 -0.0820873 -0.03391357 -0.29195163
000270 e4 93 96 3c c9 98 46 3c 29 0b a1 3d d9 53 17 bd
       0.018381067 0.012121388 0.07863457 -0.036945198
000280 3c e2 16 bd c5 1e 9f 3d 58 01 1a 3e 77 87 e2 bd
       -0.036836848 0.07769541 0.15039575 -0.11060994
000290 28 db 16 bc 39 fd 8d bb a8 79 09 be 82 23 23 be
       -0.009207524 -0.004333165 -0.13425314 -0.15931514
0002a0 8a 8b 60 3c f1 fa 13 bd 35 db 92 be b3 fa b9 bc
       0.013705144 -0.03612799 -0.28682867 -0.02270255
0002b0 a7 0c ac 3d aa 44 41 bc 5c a5 90 bd 6a 49 7e 3d
       0.08400851 -0.011796156 -0.0706279 0.06208173
0002c0 ab 7a 02 3e 7d f0 4b bd 2d 8e 08 3e 3a 39 f3 3c
       0.12742107 -0.049789894 0.13335486 0.029690374
0002d0 c2 f3 e9 bd 68 1b c0 3d d8 0b 21 be b9 e3 8c bd
       -0.11423446 0.09380227 -0.15727174 -0.06879372
0002e0 89 c7 a0 bd 8d fd d4 3b f3 8a da bd bc d3 86 bd
       -0.07850558 0.006499952 -0.10671034 -0.06583354
0002f0 fc 1e 55 3d d5 1c b7 3b 28 cb c6 bc 0a 1a 5a 3c
       0.052031502 0.005588154 -0.024266794 0.013311872
000300 38 ba db 3c a8 e7 70 be f9 d4 41 3d 68 c5 b8 bd
       0.026822194 -0.2352587 0.047322247 -0.09022027
000310 da d4 4a be a1 ce a2 be 0f d6 af bd d4 2c be bc
       -0.19807759 -0.3179827 -0.0858575 -0.023214735
000320 83 59 fa 3d 2e d7 9d bd 0a e4 c4 bd cf 76 73 bc
       0.12224104 -0.07707058 -0.096138075 -0.014859869
000330 7f 43 16 3d 71 69 02 bd f1 e5 3a be 16 13 75 bd
       0.036685463 -0.031838838 -0.18251778 -0.059832655
000340 14 99 f4 bd fd 1e 84 bd 20 09 c9 3d 04 02 33 3c
       -0.1194326 -0.06451223 0.098161936 0.0109257735
000350 fe f3 89 3d 3e f3 01 3e ae a7 17 3e ad af 87 be
       0.06735991 0.12690446 0.14810058 -0.26501217
000360 4b be 92 3d 35 ba 6b 3d 3f 8c 19 3e 66 4e 94 be
       0.07165202 0.057550628 0.14994906 -0.28966063
000370 8c 03 e8 bd a7 8f bd 3d 0c e0 a8 3d 8b b9 72 be
       -0.113288015 0.09255915 0.082458586 -0.23703592
000380 63 42 c4 3d 4f 5f 07 3d 56 c6 4e 3c de bf 3c 3b
       0.09582975 0.033049878 0.012620529 0.0028800885
000390 17 b6 47 3a 6f 13 c5 be 7f 8d 00 bc be da 4e 3e
       0.0007618381 -0.3849139 -0.007846235 0.20200631
0003a0 52 80 72 be 56 f3 07 3c 22 73 eb 3c 7b 44 af bd
       -0.23681763 0.008297762 0.028741423 -0.085579835
0003b0 a3 6a bc 3d a1 7f 36 3e 46 28 4d 3d a1 ea 9f bd
       0.09200027 0.17822124 0.050087236 -0.07808424
0003c0 5a d6 11 be 17 59 72 bc d0 a7 f7 bb 0b 97 b7 bd
       -0.14241925 -0.0147917485 -0.0075578466 -0.08964356
0003d0 09 f6 9a 3c 53 2b b3 3d 6c c3 39 3e b8 e6 fe bd
       0.018916147 0.08748498 0.18140954 -0.1244635
0003e0 92 db 42 3c 9f 59 f4 bc 91 30 9d 3d 5b 2a ed 3b
       0.01189317 -0.02982789 0.07675279 0.007237715
0003f0 75 55 cb bd 8b 1c 26 3e ff cd be be e8 ce 5d 3d
       -0.09928409 0.16221826 -0.37266538 0.0541524

fc2.bias f4 [64]
000000 e8 3b 7f bc c7 38 22 be 00 72 2b 3d 99 cd c9 3d
       -0.015578248 -0.15841971 0.041856766 0.09853668
000010 74 42 29 3e df e0 05 bd 09 0f 07 bb 41 2a 9c 3d
       0.16529256 -0.032685157 -0.0020608327 0.07625247
000020 2c e5 b1 3d ce 84 42 3e ff 08 82 3d 9a aa 95 bd
       0.08686289 0.18995973 0.06349372 -0.0730793
000030 ef e7 50 3e 32 ce d0 bb 22 d7 3f 3d 57 4e 99 3d
       0.20400976 -0.0063722366 0.046836026 0.07485645
000040 37 8e ec bd 48 f0 23 3d bf ce f8 3d 4f 46 30 3e
       -0.11550563 0.040024072 0.12148809 0.1721432
000050 66 67 68 bd 22 05 fc bd 18 dc 96 3d 7d 23 f7 8c
       -0.056739233 -0.123056665 0.07366198 -3.8077734e-31
000060 5a 68 43 be 78 4b c3 be 28 7a 0c 3d 80 49 72 3c
       -0.19082776 -0.38143516 0.034296185 0.014788032
000070 e6 cb 7b bd 64 82 c1 ae 7c 92 f0 3d 4c 2d 9e 3c
       -0.06147375 -8.799786e-11 0.1174669 0.019308709
000080 b1 07 e6 bd 68 51 c0 3d e5 6a 7a bd 5b 04 10 be
       -0.11231936 0.09390527 -0.0611371 -0.14064161
000090 e4 1f f7 3d 80 13 33 be f4 b5 a4 bd 02 b3 ac be
       0.120666295 -0.17487907 -0.08042517 -0.33730322
0000a0 01 e3 91 3e 16 03 94 bc 77 c6 20 3e d4 bf 7c be
       0.28493503 -0.018067878 0.15700708 -0.24682552
0000b0 f4 69 c2 bd 64 d2 e2 bd 32 3b 22 be 38 69 65 bd
       -0.09492865 -0.11075285 -0.15842894 -0.056008548
0000c0 69 76 69 bd 00 45 98 3d 14 06 3a bd 2d 97 1b 8a
       -0.05699769 0.07435036 -0.045415953 -7.4914115e-33
0000d0 2d 50 d4 3a 7c 74 01 be 0d 03 42 87 c1 5d 9c bd
       0.0016198211 -0.12642092 -1.4595834e-34 -0.0763507
0000e0 ae 73 8e 8b 47 ab 0f 3d 57 3c 21 be 34 66 a1 bd
       -5.4870466e-32 0.035075452 -0.15745674 -0.07880822
0000f0 38 24 86 3d c2 b0 21 3d 52 79 a0 bc 03 b9 fd bd
       0.06549877 0.03947521 -0.0195891 -0.12388804

fc3.weight f4 [1, 64]
000000 8f c5 07 3f 1d 46 85 3f f0 40 9a bd ec f5 65 3d
       0.53035825 1.0412022 -0.07531917 0.056142733
000010 3b 75 de 3d d7 d6 c9 3a 0f 59 a7 be 65 e6 08 3e
       0.10862204 0.001539911 -0.32685134 0.13369139
000020 28 75 47 3d 45 52 36 3e e5 3b 67 3e 04 f3 b8 bc
       0.048695713 0.17804821 0.22581442 -0.022576816
000030 71 34 7f be e9 c4 b7 be 40 7d ae 3d 68 fd 90 3d
       -0.24922349 -0.35892418 0.08519983 0.070795834
000040 18 13 12 bf de 0f fe 3e 6f d6 f1 be b3 c0 1f be
       -0.57060385 0.4962148 -0.47233912 -0.15600853
000050 c7 bf 98 be 14 b8 54 3f 64 55 cf 3a 55 6a 18 0d
       -0.29833815 0.8309338 0.0015818295 4.696661e-31
000060 96 13 98 be 57 fc 04 c0 8b e6 1b bc ea 79 5b bd
       -0.29702443 -2.0779016 -0.009515415 -0.053583063
000070 5e ec 8f bd d3 99 0a 39 40 ab 15 bf 16 0a 38 be
       -0.07027505 0.0001321801 -0.5846443 -0.17972597
000080 e1 fc 49 bf 61 78 0c 3e a9 7a 1b bf 16 89 7b 3d
       -0.7890149 0.13717796 -0.6073404 0.061410032
000090 c5 70 bd 3d 79 d7 ab be 53 f2 1b 3f 34 d3 9d 3f
       0.09250025 -0.3356283 0.6091663 1.2330079
0000a0 8b cd 9f 3e d9 64 11 bf 36 dd f2 3e 55 68 51 be
       0.31211504 -0.56794506 0.47434396 -0.20449956
0000b0 2d cb 34 3f 64 45 1c 3e f9 1e 4d 3e b0 b6 3f 3d
       0.7062252 0.15260845 0.20031346 0.046805084
0000c0 6c e5 0d bf 46 1d 4f 3d 5f 21 3e bf 99 5d 6e 8a
       -0.55428195 0.050565027 -0.7426967 -1.1476887e-32
0000d0 2d 30 71 3f 5f 61 62 3d d0 a4 20 86 06 ec 08 3f
       0.94214135 0.05526864 -3.021374e-35 0.53485143
0000e0 48 67 62 09 c8 d7 bb bd db 8c d3 bd f1 54 0d 3e
       2.7252323e-33 -0.091720164 -0.103296004 0.13801934
0000f0 5c 64 92 bd a5 6d 2b bf b3 60 78 3d b8 95 90 3f
       -0.07148048 -0.6696418 0.060639095 1.129569
