src/nnue/64502525.pth (torch, 217633 bytes, 5 tensors)

fc1.weight f4 [64, 771]
00000000: 9487 8501 ce61 253e 9c9d 143e 330d 003e
00000010: 92f6 7f3e 6a79 6e3d a8b1 8581 0c17 00bc
00000020: fb58 93be 3ad0 ddbd 381c e2be 188d bd3e
00000030: 818e 8581 7386 883d 01c6 853d 7cd8 083e
00000040: 0529 0f3f f5ef 99bd 5491 8581 3662 05bc
00000050: 2def 80be ddd0 8ebe 2475 f9be b323 283c
00000060: f9a1 8581 b445 283e 95be 053e 6855 9f3d
00000070: 2cff a53e 9be3 fa3c ac94 8581 148f 18be
00000080: 2fdb 29be b3c6 51be 967b d2be a340 5d3e
00000090: aeae 8501 df5e 223e f2e9 26bd 0b2e 013e
000000a0: a757 d83e d9de bdbd fdb0 8501 46dd 3dbe
000000b0: 9304 7ebd cf76 6dbe 0a3a fabe 1c0c 7f3e
000000c0: 8c92 8501 f3e6 d73a f4d8 563d e4d9 9a3d
000000d0: c0eb 843e 61b7 34bc b590 8501 316b 81be
000000e0: ea7e 3dbe 1e7f 37be a93d ccbe 07da 953e
000000f0: 28a8 8581 c76b 423e 8244 e43d 59de 9f3d
00000100: 7571 c13e 8631 c53c 5988 8581 07bd debd
00000110: 27a1 35be b580 90be e444 dcbe ab5e 043e
00000120: 8485 8501 4e75 743e c2b0 e13d 4caf 1d3e
00000130: f12d 043f 46dd 0fbd 6ab4 8581 7fef 1abf
00000140: db27 b1be 1090 a5be 5fed d4be 48af 183e
00000150: 5a9e 8581 8cb3 913e 1da7 c13d 9ae0 133e
00000160: 6f0c a83e 1824 61ba 4686 8581 d0a4 1cbe
00000170: b1e2 1ebe 4a7c 9fbe 4fb7 d0be 7a89 93be
00000180: 58fe 763d 83c5 f1bb 1085 543b bc36 563e
00000190: 96da 403e 819a 503d ebb1 48bd 0db5 e5bb
000001a0: 2f7d 0abd 32f9 00be c0ea eebe 15f8 753e
000001b0: 5dc5 753c a093 a7bd 1ad7 c93d a0a1 193e
000001c0: 68bc 3c3e 5695 a4bc b56d cdbe 7549 e2bd
000001d0: 0dbe 78be 2a4e 25be 38ec f8be 9005 c23a
000001e0: 0545 013d 0f72 ca3d 353c d63c 4283 f93d
000001f0: cb10 913e da7b 73bd 5319 093d 88c9 1bbe
00000200: 01de cabc 82d8 73be 1706 e8be 3809 9b3d
00000210: 98db 893d d9a2 243e 93cb 763d 83de 663e
00000220: 99e6 9c3e 434f 9ebc 54e1 7dbe 814c a7be
00000230: b68f 85be 2a87 3abe d28e 08bf 1c3b 393e
00000240: 4f16 a03c 04ea 083e e7b6 9b3d c132 433e
00000250: 03f4 9c3e 68c3 95bc df2a 2dbe 82fd 8abd
00000260: e354 ffbd 2729 26be 078e c8be 9d45 103e
00000270: ec8c 833d ebd2 393e 86b7 d53d 728e 5b3e
00000280: 08f9 993d b052 1cbc 2d4a 92bd 03c9 12be
00000290: 83ed 1fbe 46cd 62be 4087 01bf 7060 c83d
000002a0: 2820 633d a431 fa3d ae8b 6b3d 4f68 853e
000002b0: b1e6 713e 0cfc 63bd 226e b4bd 47fb 6bbe
000002c0: 78f8 12bd 5b8b 5fbe 889e ccbe 9d22 f93d
000002d0: 47be e23c 37e1 023d f0b7 51bd 2dfd 543e
000002e0: 910a a43e 5e57 523d 98dd bbbd d63f 3dbf
000002f0: 397b c6bd a123 97be 0804 afbe c04a b13d
00000300: de25 7c3d d1ac 893d aad1 e23c 33e4 fe3d
00000310: 83d2 a43e 013e bf3d 85ba eebd e79d d8bc
00000320: 29a3 16be b722 74be 74b5 dabe 7f2e a73d
00000330: 8c01 613d a5d4 bd3d 0177 073e 8ea7 dc3c
00000340: 40e8 a03e 0cc4 593d 0f7d fabd 00c3 bfbd
00000350: acf5 7bbd 10ee 63be 773c fbbe 18a8 153d
00000360: b73e 233d f38a cd3d ec77 d13d 2ae1 743d
00000370: e920 963e 2cb0 403a 3eea c7bd 5d38 38be
00000380: f895 4ebe e2fc 40be 0a05 e2be 7ca0 e93d
00000390: 5802 753d ee4e bb3d 5629 913c 2c6c c93c
000003a0: c2e4 6e3e e5d2 0bbd 2e83 a7bd d77d 13be
000003b0: 71c7 0fbe 5eff 40be f44a eabe bbbc 313e
000003c0: 3672 663d 28af 663d a15e 96bd 1625 8c3d
000003d0: 58aa 953e 61d7 9bbc b90d 82bc d3fb f3bd
000003e0: ec87 5cbe f699 5bbe 31a7 ebbe b953 213d
000003f0: 4e8c ba3d 770f 373d cf98 203d fecc 513e
4.905103e-38 0.16150591 0.14513248 0.12505035 0.24996403 0.05822126 -4.911141e-38 -0.007817995
-0.28778824 -0.10830732 -0.44162154 0.37021708 -4.9060967e-38 0.06666269 0.06531907 0.13363832
0.55921966 -0.07516471 -4.906502e-38 -0.008141091 -0.25182477 -0.27893725 -0.48722184 0.010262418
-4.9088903e-38 0.1643284 0.13060983 0.07779962 0.32421243 0.030626109 -4.906982e-38 -0.1489833
-0.16587518 -0.20485954 -0.41109914 0.21606688 4.9107137e-38 0.15856503 -0.04075045 0.1261522
0.42254373 -0.092710204 4.911045e-38 -0.1854144 -0.06201608 -0.23189853 -0.48872405 0.24906963
4.906677e-38 0.0016472026 0.052452996 0.075610906 0.25961113 -0.011030049 4.906413e-38 -0.25277093
-0.18505445 -0.17919585 -0.39890793 0.29267904 -4.9097776e-38 0.18986426 0.11145879 0.07806081
0.37781873 0.024071466 -4.9052133e-38 -0.10875898 -0.17737256 -0.28223196 -0.4302131 0.12926738
4.904807e-38 0.23872873 0.11020042 0.15398902 0.516326 -0.035123132 -4.9115365e-38 -0.6052169
-0.3460072 -0.32336473 -0.4158735 0.14910614 -4.908371e-38 0.28457296 0.094557025 0.14441147
0.32821986 -0.0008588447 -4.9049157e-38 -0.15297246 -0.15516163 -0.31149513 -0.40764853 -0.28815824
0.060301155 -0.0073782816 0.0032427944 0.20919317 0.18833384 0.050928596 -0.0489978 -0.0070101083
-0.03381079 -0.1259506 -0.46663475 0.24020417 0.015000668 -0.08182454 0.098554805 0.15003061
0.18431246 -0.02009074 -0.40122762 -0.11049167 -0.24291249 -0.16143098 -0.4861772 0.0014802683
0.031559963 0.09885036 0.026151756 0.121832386 0.28333125 -0.059444286 0.033471417 -0.15213597
-0.024764063 -0.2381306 -0.45317146 0.07570118 0.06731337 0.16077746 0.060252737 0.22545819
0.30644682 -0.019324904 -0.24792987 -0.32675555 -0.26086205 -0.18215623 -0.53342927 0.18088955
0.019541888 0.1337052 0.07603245 0.1906233 0.30654916 -0.018281654 -0.16910885 -0.06786634
-0.12467363 -0.16226636 -0.39170858 0.14089055 0.06423363 0.18146865 0.10435395 0.21441057
0.07518202 -0.009541199 -0.07143054 -0.14334492 -0.15617947 -0.22148618 -0.50597 0.09784019
0.05545059 0.122164994 0.057506256 0.26056144 0.23623158 -0.055660293 -0.08810069 -0.23045073
-0.03588149 -0.21830504 -0.399647 0.12164805 0.027678622 0.031953063 -0.051200807 0.20799704
0.32039312 0.05135285 -0.09173125 -0.7392553 -0.096914716 -0.2951937 -0.34182763 0.086568356
0.06155955 0.06722415 0.027687866 0.12445869 0.32191858 0.09337998 -0.116566695 -0.026442481
-0.14710678 -0.23841368 -0.42716563 0.08163165 0.054933116 0.09269074 0.1322899 0.026935365
0.31427193 0.05316548 -0.12230884 -0.09363365 -0.061513588 -0.22258782 -0.4906957 0.03653726
0.03985473 0.10036268 0.102279514 0.059785046 0.29321983 0.00073504704 -0.09761475 -0.17990251
-0.20174396 -0.18846467 -0.4414447 0.11407563 0.05981669 0.09145914 0.017719906 0.024587713
0.23329452 -0.03413667 -0.081793174 -0.14403473 -0.14040925 -0.18847415 -0.4576031 0.17357151
0.056261264 0.056319386 -0.07342268 0.06843011 0.29231524 -0.0190236 -0.015875684 -0.11913266
-0.21536225 -0.2144545 -0.46025994 0.039386485 0.09108792 0.044692483 0.03920823 0.20488355

fc1.bias f4 [64]
00000000: b1f9 af3d 0a16 dcbd addf 80be 814a 803e
00000010: 29c2 88be 8a0b 55be 5730 39be 943d 47bd
00000020: fc78 033e 91c1 903c 8614 743e 3811 28be
00000030: 68a0 d2bd 9aa2 e3bd 036e 733c d9fe febc
00000040: c28f 45be beff 07be 9950 5bbd 5ac6 b2bd
00000050: b5dc bebd caa6 923c bbf8 503d fd76 63be
00000060: a3c5 ab3c 4610 063e 336f d5bd 7818 2ebe
00000070: f962 053e 8f42 f5bd 2e26 36bf c5e4 d4bc
00000080: 7fc6 1c3e 3920 cabd 03e6 613e eaba 0d3e
00000090: d289 01be 80ee efbc d65e ce3e 05d1 55be
000000a0: 68f0 08be 2bf1 24bf 268e 19bd 9340 3ebe
000000b0: 4cce 5b3e 71f5 8cbd e08b b1be 6535 09be
000000c0: a092 d1be 26f7 873e f044 293e 6c46 883c
000000d0: 11ec 263f bc6b 963c 5a5d 19bd 0403 a83d
000000e0: a930 8b3d 9ba2 a6be ecfa 913e b747 30be
000000f0: bca6 453e 784c a83d c170 21be 6d95 c73e
0.08592547 -0.10746391 -0.2517065 0.25056842 -0.26710632 -0.20805183 -0.18084846 -0.04864271
0.1283912 0.017670425 0.23835954 -0.16412818 -0.10284501 -0.11114998 0.014857772 -0.03112738
-0.1929312 -0.13281152 -0.05354366 -0.08729239 -0.0931944 0.017901797 0.051018458 -0.22213359
0.020968264 0.13092145 -0.104216 -0.17001522 0.13026036 -0.11975586 -0.7115201 -0.025987992
0.15310095 -0.09869427 0.22060399 0.13840833 -0.1265023 -0.02928853 0.4030673 -0.20880516
-0.13372958 -0.64430493 -0.03748908 -0.1857932 0.21465415 -0.06882752 -0.3467703 -0.13399275
-0.40932178 0.26555747 0.16530204 0.016635142 0.6520396 0.018361919 -0.037442543 0.082037
0.067963906 -0.32545933 0.2851175 -0.17214857 0.19301885 0.0821771 -0.15765668 0.3898119

fc2.weight f4 [64, 64]
00000000: ff24 ba3e 9fed f7be f27c fdbc 1459 19be
00000010: 8a79 c53d 40c7 1dbf ecc9 7ebe c421 5abd
00000020: 29b4 2fbd 380b c9be 0768 8dbd b276 bfbd
00000030: 3cdb 253f efa0 83be 4609 0cbe 061f c03e
00000040: 3728 c4be 4c65 a3be 556b 383e 4d67 c63d
00000050: 9598 4abd 0877 6d3e 79bf 91bc b005 f7be
00000060: baff 3abe ce09 243d 03ac eb3e 5888 b4be
00000070: f581 84be 33e0 963c a254 603e 7842 24bf
00000080: db0d 1f3d 2812 c9bd a4f8 853d ab99 ef3c
00000090: db9a 393d 00ac e9be caca f8bd c711 713e
000000a0: 579d 0abf 107a 303d 871d ee3d 63e4 2d3d
000000b0: 89c2 4d3e 297d 193f 6b37 eabd 635e 94be
000000c0: 35cb 123e 9613 7dbd 7124 6b3e 93fc 63be
000000d0: c398 a03e c770 c53e 3e1a a43e ceb4 72bc
000000e0: 47f4 463d 07c1 7abd 16a8 0a3e f48c 0abe
000000f0: 8da2 bfbd 3b74 cd3e 2643 0dbf 9fb2 5a3e
00000100: 7f29 13bf 1186 13bf 1c5c 85bb 41ba 123e
00000110: 714f 4a3e f9d6 f1be 254d 9dbe 7d20 063f
00000120: 0685 aa3d 22c4 03be d001 1bbe bc82 2cbe
00000130: f26d 783e 9360 abbe 684e 053e f11a 9abe
00000140: 520a 9cbe 916d 0e3e d87a ed3b 2e07 db3b
00000150: 98dd d53d f969 c53e c9c4 0a3e 48ab 03bf
00000160: c4f7 b0bd 1e15 d4bb c94d 793e a524 45bf
00000170: 8b8a 10be 8463 2d3c 77d4 3a3d 9229 ccbe
00000180: cf21 95bd 8f1a 4bbe 06b0 053d 8f4b abbd
00000190: f1dc 35be 5628 a7be b160 253e 6078 2b3e
000001a0: 06ac 43bf 3638 c0bb c62f 993d 4cc8 673e
000001b0: c13a 97be 28d5 fe3e 2cf8 74bc 6875 ccbe
000001c0: b01f 8f3e e186 323e b926 333e 53ca 0d3e
000001d0: 1bd0 943e c87d 583e 80ff dd3e 2fd0 5b3c
000001e0: bb17 80bc 2e07 bc3e 8862 d23d 54e6 f63d
000001f0: b21b cd3c 49e8 f23e 4d32 25bf d743 8abe
00000200: 134d ef3d e6e8 5fbe f9f2 923e fba0 04be
00000210: a520 cabd 2173 11bd 31e2 06be 1e5b 80bb
00000220: 2ed1 11ba ba92 6abc fd02 81bd 3628 85bd
00000230: 36a4 97be b687 9f3e f1a2 153e c10f 90bb
00000240: 3033 c3bd a994 acbe 9e34 913c 0b45 ebba
00000250: 7948 2b3e 60e2 14be 0e57 f73d 575d 2fbd
00000260: 789e a03b 7e57 4bbe 49fd 8dbd 2e39 e8be
00000270: 5463 1fbe 9b24 a23d 92b0 f23d 0e8f ee3c
00000280: bf09 e4bd 6ff6 933d e1ed cabd 4343 98be
00000290: 4acb d7bc d5b8 56be 5933 9abe 63bb dabe
000002a0: e6d1 1ebe c095 45bd 1dac 2ebe 3ff3 da3c
000002b0: 2423 473d a5b8 003e 3886 cebd 15d6 f03c
000002c0: fb00 4e3c 1d38 4cbd 3852 db3e eeeb 7fbc
000002d0: 93a9 a8be 10f5 043f 1e58 dbbe 0355 cabd
000002e0: 0ae8 05be 3117 353e 548b 4a3d 3ff6 293d
000002f0: ccdd 433d d2f0 98be 495b 413c 4622 c63c
00000300: a4e6 0bbd b3e7 d83d 7c9a 363d 6dfc 3bbe
00000310: 3b67 22be 290a 20be 78c4 833e d1d3 1f3e
00000320: 2199 d63c 7e06 293e 5d6c 1bbe 0360 02bd
00000330: 28a3 c8bc 0587 133e 3c21 4cbe bf5d 81be
00000340: 3cbb 85be 5b52 debc 4fe2 f63d a160 4f3d
00000350: 1fb5 df3d 8140 ed3d 250e 563e b523 56be
00000360: 1504 3a3e 04f3 f3bc ac51 2c3e d2e7 083d
00000370: 8c35 2cbe 490c 373e 17a2 923d a57d 1abb
00000380: 479b e33c 62c1 cf3d 9171 3ebe e6b8 50bc
00000390: be60 bebd 5da2 c4be afc1 52bd 6d0a 633e
000003a0: df99 f9bd 18d4 33bd 5f17 da3d 35ed 123e
000003b0: 3043 e43d f0ec e03c f9b0 353d 9562 313e
000003c0: a6a3 abbe 9c8f 03bb d5b3 2d3e 8c45 2bbc
000003d0: 2cf3 f53d 31bb 5d3e 7ceb 1e3e 863a 1abe
000003e0: 5fd3 873c 02aa 853d afc8 9a3e 38db 2dba
000003f0: 93b6 36bd 16ec 133b 376c 66bd bbe1 423d
0.3635635 -0.48423478 -0.030943368 -0.14975387 0.09642322 -0.61632156 -0.24881715 -0.053254858
-0.042896423 -0.39266372 -0.06904607 -0.09348811 0.6478765 -0.2570872 -0.13675413 0.3752367
-0.38311931 -0.3191322 0.18009694 0.09687672 -0.04946192 0.23189938 -0.017791497 -0.48246527
-0.18261614 0.040048413 0.46029672 -0.35260272 -0.258804 0.018417453 0.21907285 -0.64163923
0.038831573 -0.09817916 0.06541565 0.02924808 0.045313697 -0.45639038 -0.12148054 0.23541938
-0.5414633 0.043085158 0.11626726 0.042454135 0.2009374 0.59956604 -0.114363514 -0.2897826
0.1433533 -0.061786257 0.2296312 -0.22264318 0.31366548 0.38562605 0.3205127 -0.014813615
0.048572805 -0.06121924 0.13540682 -0.13530332 -0.09357176 0.4012774 -0.55180585 0.21357201
-0.57485193 -0.57626444 -0.004069818 0.14328863 0.19756867 -0.47234324 -0.3072292 0.52393323
0.083261535 -0.12867787 -0.1513741 -0.16846746 0.24260691 -0.33472118 0.13018191 -0.3009868
-0.30476624 0.13908984 0.00724731 0.0066842055 0.10442656 0.38557413 0.1355163 -0.5143323
-0.086410075 -0.006472244 0.24346079 -0.7700904 -0.1411535 0.010582808 0.04561278 -0.39875466
-0.07281839 -0.1983435 0.032638572 -0.08364021 -0.17760064 -0.3264796 0.16150166 0.16745138
-0.7643436 -0.005866076 0.07479815 0.22635001 -0.29537013 0.49772 -0.014951747 -0.39933324
0.27953863 0.17434265 0.1749524 0.13846712 0.29065022 0.21141732 0.43358994 0.013416334
-0.015636316 0.36724228 0.102726996 0.1205565 0.02503762 0.47442845 -0.6452988 -0.27004883
0.116846226 -0.21866187 0.28700998 -0.12952034 -0.09869508 -0.035510186 -0.13172223 -0.003917112
-0.0005562481 -0.014317209 -0.06299398 -0.0650181 -0.2961747 0.31158227 0.14612938 -0.0043964093
-0.095312476 -0.3370717 0.017725285 -0.0017949654 0.16726865 -0.1453948 0.12077151 -0.042813625
0.0049017034 -0.19857594 -0.06933076 -0.45356125 -0.15565234 0.07917138 0.11850084 0.029120948
-0.111346714 0.07224738 -0.09908653 -0.29738817 -0.026342053 -0.20968945 -0.301173 -0.4272109
-0.15509757 -0.048238516 -0.17057844 0.026727317 0.048617497 0.12570436 -0.10084194 0.029398957
0.012573476 -0.0498582 0.42836165 -0.015620215 -0.32941875 0.51936436 -0.42840666 -0.09879496
-0.13076797 0.17684628 0.04944928 0.041494604 0.047818944 -0.2987123 0.011801549 0.024186265
-0.034155503 0.10591068 0.04458092 -0.18358012 -0.15859692 -0.15628876 0.2573583 0.15608145
0.026196064 0.16506383 -0.15178056 -0.031829845 -0.024491861 0.14406975 -0.19934553 -0.25266835
-0.2611941 -0.02713888 0.12054884 0.050629262 0.10923218 0.11584569 0.20903833 -0.20912059
0.1816562 -0.029778965 0.1682803 0.033424206 -0.16817302 0.1787578 0.071598224 -0.0023573425
0.027784003 0.10144307 -0.1859801 -0.012739396 -0.09295796 -0.38405123 -0.051454242 0.22171946
-0.12187552 -0.04390344 0.10648989 0.143483 0.111456275 0.02745673 0.044358227 0.17322762
-0.3352329 -0.0020074612 0.16963132 -0.010453593 0.12009272 0.21653439 0.15519518 -0.15061387
0.016580282 0.06526567 0.30231234 -0.00066320924 -0.04460771 0.0022571138 -0.056255545 0.047578555

fc2.bias f4 [64]
00000000: a45a 6cbd 4085 8abe aa30 16bd 08cd 2a3e
00000010: 1d99 733e af77 09be 85ef 9bbd 7852 dd3c
00000020: 55a9 cf3d fc46 703e 2316 8d3d 5d17 39bd
00000030: f67f a13e 1420 a1bd b1e5 85be a740 703d
00000040: 475f 14be 34da e7bc 6f24 833d e44c 053e
00000050: 3390 ecbd a6d6 73be 674b 7e3d efa9 5685
00000060: 3eac 8bbe 79db 03bf 13f9 71bd d8ab 793c
00000070: a3d5 663b 48ac 8581 698a 133e 4817 183c
00000080: 4170 19be 429c 8b3d 6a9c 33be 6feb 76be
00000090: 1d0d 343e 1672 a0be 2dd1 3dbe 5af0 00bf
000000a0: c601 b33e fad8 b6bd b067 263e 8a15 9abe
000000b0: 575f 5bbe 915b 2bbe 52a8 8fbe 29b5 88bd
000000c0: 4f47 33be f49e cb3d cfbd 68bd e48c 8581
000000d0: 96eb acbd 280a 58be f29d 8581 da19 13be
000000e0: deaa 8581 3cdf a33d d3a7 93bd d477 e6bd
000000f0: 7ce1 523e a182 933c 5cdc eebd bd3c 5dbe
-0.05770363 -0.27054787 -0.036667503 0.16679776 0.23788877 -0.13424562 -0.07614044 0.027016863
0.101397194 0.23464578 0.06888988 -0.045188297 0.3154294 -0.078674465 -0.26151803 0.058655407
-0.1448947 -0.02830229 0.064034335 0.13017613 -0.11550941 -0.2381235 0.062083628 -1.00934435e-35
-0.27279848 -0.51506764 -0.059075426 0.015238725 0.0035222552 -4.9103695e-38 0.14408268 0.009282894
-0.14984228 0.06816913 -0.17540136 -0.24113248 0.17583127 -0.3133704 -0.18536825 -0.5036675
0.3496229 -0.08928104 0.16250491 -0.30094558 -0.21423088 -0.16734149 -0.28058106 -0.066751786
-0.17507671 0.09942427 -0.05682164 -4.905865e-38 -0.08443372 -0.21097624 -4.9083124e-38 -0.1436533
-4.9101666e-38 0.08001563 -0.07209744 -0.11253324 0.20593828 0.018006625 -0.11663124 -0.21605201

fc3.weight f4 [1, 64]
00000000: 78c4 2c3f a5dd 463f dd9b abbe f86a 6f3d
00000010: ba51 e23d 5060 24bf ea90 7abe c66f 3d3f
00000020: fa70 153e 502d b13d 0608 aa3e 6ac7 10be
00000030: 7302 ecbd d31e f8be 1d26 e63d d3c5 263e
00000040: b9bc 12bf 54c1 263f 97b2 8dbe 3c18 bcbd
00000050: dec8 dcbe 4454 7c3f 82b7 9f3e 98c3 a305
00000060: 6334 15be 90d5 1ec0 a913 21be b37d 13bd
00000070: 4cc3 03be e62c 7701 79b7 34bf 1d25 e1bd
00000080: 1c1d 68bf ee56 f63d 5d50 07bf e906 8c3e
00000090: b06f a23d e276 16bf 4b9a e03e beae fd3f
000000a0: 8895 223e 5002 00bf 5145 b03e 73e8 17be
000000b0: 7b92 363f 8032 953d ecce ce3e ce91 c53d
000000c0: dbcd 1fbf e40f 233d 5ec7 04bf 7897 8581
000000d0: 3459 263f a633 1c3d 70a8 8581 4a48 f83e
000000e0: e8a4 8581 ff7c 1fbd d66d 4abd aa6e 553d
000000f0: 560b 13be ed17 2dbf 4984 263d cc1a a23f
0.6748729 0.7768195 -0.33517352 0.058451623 0.11050744 -0.6420946 -0.24469343 0.7399868
0.14593878 0.08651221 0.33209246 -0.1413857 -0.11523905 -0.48461017 0.11237738 0.16286401
-0.5731922 0.65138745 -0.27675316 -0.0918431 -0.43122 0.9856608 0.31194693 1.5400296e-35
-0.14570765 -2.4817848 -0.15730156 -0.036008548 -0.12867469 4.5398948e-38 -0.7059246 -0.10993407
-0.9066942 0.12028299 -0.52857 0.27349022 0.07931459 -0.5877515 0.43867716 1.9818952
0.15877354 -0.5000353 0.34427884 -0.14834766 0.7131726 0.07285023 0.40392244 0.09646951
-0.62423486 0.039810076 -0.5186671 -4.907383e-38 0.64979863 0.038135193 -4.909818e-38 0.48492652
-4.9093113e-38 -0.038937565 -0.049421154 0.05210749 -0.14359793 -0.6761463 0.0406535 1.2664428
