src/nnue/64_1.106e-2.pt (torch, 225101 bytes, 5 tensors)

weight f4 [64, 771]
00000000: bcae 8501 d1a5 2dbe 2fda 5abe 8b1f 20bd
00000010: fa2a 263d c8e9 bbbe cc83 8501 d3dd cf3e
00000020: 3de1 debd 11f2 493d 1ae5 4a3e 3701 a23e
00000030: 8895 8581 363a 33bd 2797 29bd 3150 ccbd
00000040: 686a ed3d 5f7a 2cbe bd88 8581 c477 8e3c
00000050: a75c 99be d036 5b3e dbcc 733e 2c78 133d
00000060: 3993 8501 c2e4 933e c107 ca3d 3917 45bd
00000070: 14a6 c6bd 785d aabe 3ea9 8501 15b2 a3be
00000080: 773c b83d 4304 4a3e 728f be3c 96da 963d
00000090: bbab 8581 fe31 43bc e026 03bc 8783 ddbe
000000a0: 68e2 5ebd 3366 a33d f88c 8501 c421 36bb
000000b0: d18d 773c 0e36 013e 54d1 5d3e ddf6 5abe
000000c0: 1b9f 8501 b053 d13e 58a0 d23d 37b3 cb3d
000000d0: dfcd cf3d c4f3 f73d a9aa 8501 1d2b 95be
000000e0: 33e3 6dbe 4ac8 813e f6fd 983d 0862 19be
000000f0: 6699 8501 b1b5 cd3e b78a 303d 4fc3 19be
00000100: c12b 28bd 465f bb3d d48b 8581 af32 90be
00000110: 4521 943d 2b0a 213e 61ad a93e df26 5abe
00000120: b4b3 8581 da35 163c de86 6fbd 9ae1 123e
00000130: 1cc5 a0be 2316 8c3d bca0 8501 28e5 f9bc
00000140: 0be7 633d 72b7 7e3e 3407 443e fd58 a4bd
00000150: 1b9a 8581 7d23 0a3e 9091 853e 9dac c6bd
00000160: 1994 77be 7020 3b3e ea8f 8581 f7c7 0bbe
00000170: 1620 5b3d 4401 2c3d 0bae 0dbd 89be 25be
00000180: 790d e63d 67f4 263d e287 313e dcac d1be
00000190: af43 a3bd ad84 cdbc a85b a23e 19e2 293c
000001a0: a5d9 bd3d a5f9 45bd c7c2 8e3e 8a02 ff3d
000001b0: 7e91 b8bb 7136 8abd 3466 d5bd 1a4f 7ebd
000001c0: 12a7 863e f3c8 fabd 906c a8bd d08f 29be
000001d0: 6a97 f53c 2f6f 1abc 4415 bc3e 9c70 70bd
000001e0: 7a95 91bc 59ab b4bd 14f2 65be 5298 1ebe
000001f0: cfe5 b73d a8bf 21be 9de5 7abe fbba d03d
00000200: 545a 9f3e be41 853e 5b03 933e b124 2fbe
00000210: 19e2 b7bd 1255 6fbe 5626 8ebd fc4c 4e3d
00000220: 9ea4 61be 6b04 303e 4c14 6f3e 2633 5abe
00000230: cd5e b13b e116 de3d 333b 8b3e 7f45 473e
00000240: 09c3 203e 2177 35bf 9331 10bb d9e9 3cbe
00000250: fb33 a5bd 01ab 563e 6ba9 1a3c d691 413d
00000260: 2c38 23be b122 a93d 8106 b23e 4c83 83bd
00000270: 0745 9bbe ba2f 06bd c8ee bebe 0fda 0ebe
00000280: ff2b fe3b 8ae8 5d3d 622f b1bd 2cbc 3e3e
00000290: 6b79 18bd 9eec ae3d e529 483e 4578 1fbe
000002a0: cc33 a53b 3619 10be 1b47 e8bd 79fd 70bd
000002b0: 4d7b 0ebf 18b4 f5bd b0b7 5dbe fea9 47be
000002c0: de81 31be ce68 b43d d6b7 6f3e 09d2 de3b
000002d0: a585 8839 27f0 283a 56bb 13bd ecf5 f0bd
000002e0: 82e5 f1bc fbf8 cfbc 0d86 e8bd ca95 9ebc
000002f0: f23f 9ebc 46d6 673d 7e67 f6bc e262 03bd
00000300: b0c7 983d e2e8 aebe c78f d8be fc3c adbe
00000310: bd16 bb3d decd 27be aac7 8fbd d853 b53d
00000320: 6a88 123e 231c 4c3d a1a2 7e3d 6adb d0bd
00000330: 489e 6cbc 140f 3cbe 27ed 0b3d e46c aebe
00000340: 3a14 0e3e 8fb9 1dbe 05c7 73be 0a6e d1bd
00000350: 853a ddbd b2b5 0b3c ff78 283e d48d 93bd
00000360: 0b6a 9bbd 0a53 7bbd 0ef4 6cbd 0191 a2bd
00000370: 3b43 2dbe 3433 25be 1c4f 18bc 9899 6dbe
00000380: fbbb e8bb da81 dd3b 9220 8a3e 5c11 3b3e
00000390: a201 423e 8702 f1bd b1f9 01be 745b 68be
000003a0: 0d07 90be e687 4dbd 49d6 8c3d 3ce5 7a3e
000003b0: 46fa 0e3e 7d32 1abe 2680 fe3c 5b47 873d
000003c0: 4569 17be ccb7 c3bd e6cd 90be 0104 a1be
000003d0: b7a8 d53d 519f 7fbe 8201 38bd b853 acbd
000003e0: 194a 003e 2e91 49bd 7558 783e 9737 983b
000003f0: 221d 81be 685e bebe 87d2 833d c153 e4bc
4.9107215e-38 -0.16957785 -0.21372293 -0.03909258 0.04056833 -0.36701798 4.9045603e-38 0.40598926
-0.108828045 0.04930312 0.19813958 0.31641552 -4.907105e-38 -0.043756686 -0.041403916 -0.09976233
0.11592561 -0.16843556 -4.9052694e-38 0.017391093 -0.299535 0.21407628 0.23808615 0.036003277
4.906774e-38 0.28885466 0.0986476 -0.04811785 -0.09699646 -0.33274436 4.9099335e-38 -0.31971803
0.08995908 0.19728188 0.02326176 0.07365911 -4.9102905e-38 -0.011913775 -0.008004874 -0.4326441
-0.054415137 0.07978477 4.9058764e-38 -0.0027791122 0.015109495 0.12618276 0.21661884 -0.21383233
4.908479e-38 0.4088416 0.102844894 0.09946292 0.10146689 0.121070415 4.910137e-38 -0.29134455
-0.23231201 0.2534812 0.07470314 -0.14978802 4.90766e-38 0.40177682 0.04310104 -0.1501591
-0.041057352 0.09149031 -4.905713e-38 -0.2816367 0.07232908 0.15726535 0.3314009 -0.2130389
-4.9114345e-38 0.009168113 -0.05847823 0.14343873 -0.31400383 0.0684016 4.9087126e-38 -0.030504778
0.05564026 0.24874666 0.19143373 -0.08024786 -4.9077614e-38 0.134901 0.26087618 -0.09700892
-0.24177589 0.18274093 -4.906299e-38 -0.136505 0.053497396 0.041993394 -0.03458981 -0.16185965
0.112330385 0.040760424 0.17336991 -0.40952194 -0.07971894 -0.025087679 0.31710553 0.010368847
0.09270028 -0.048333783 0.27882978 0.12451656 -0.0056325784 -0.06748665 -0.10419884 -0.062087156
0.2629934 -0.12245359 -0.08223832 -0.16558766 0.029979426 -0.009425922 0.36734974 -0.058701143
-0.017771471 -0.088217445 -0.22455627 -0.15487793 0.089793794 -0.15795767 -0.24501653 0.10191914
0.31123602 0.2602672 0.28713498 -0.1710384 -0.089786716 -0.23372295 -0.06940906 0.050366387
-0.22035453 0.17189185 0.23347586 -0.21308574 0.0054129125 0.108442076 0.27193603 0.19460104
0.156994 -0.708849 -0.0022002205 -0.18448581 -0.08066555 0.2096367 0.009439806 0.04725822
-0.15939397 0.0825857 0.34770587 -0.06421527 -0.303261 -0.03276036 -0.3729155 -0.1395037
0.0077567096 0.054176845 -0.08651616 0.1862647 -0.03722517 0.08541225 0.19547231 -0.15573223
0.005041575 -0.14072117 -0.11341687 -0.05883548 -0.5565689 -0.11997241 -0.21652102 -0.1949844
-0.17334697 0.088090524 0.23409972 0.0067999405 0.00026039514 0.0006444477 -0.03606733 -0.11765656
-0.029528383 -0.025387278 -0.11353693 -0.019358534 -0.0193176 0.05660083 -0.030078646 -0.032076724
0.07459962 -0.3416205 -0.42297193 -0.3383559 0.09135196 -0.16387126 -0.07020505 0.088538826
0.1430985 0.04983152 0.062166814 -0.101981 -0.014442034 -0.18365127 0.034161713 -0.34067452
0.13874903 -0.15402816 -0.23806389 -0.102260664 -0.10802177 0.008527206 0.16452406 -0.07204786
-0.075885855 -0.06135849 -0.057849936 -0.079378136 -0.16920178 -0.16132814 -0.009296205 -0.23203123
-0.007102487 0.0067598643 0.26977974 0.18268341 0.18945935 -0.1176806 -0.12692906 -0.22691137
-0.2813038 -0.05017843 0.06876809 0.24501508 0.13962659 -0.15058322 0.031066965 0.06605407
-0.14786251 -0.09556541 -0.28282088 -0.31448367 0.104325704 -0.24963118 -0.044923313 -0.084144056
0.12528266 -0.04921072 0.24252494 0.0046452987 -0.2521754 -0.371814 0.06436639 -0.027871968

bias f4 [64]
00000000: 4690 c7bd d52f 3dbe fb84 ae3e 55c4 ffbd
00000010: 2be7 02be 65fd 14be ae8d 903d fb96 553d
00000020: 77c1 6ebd 02d7 e8bd 6db2 bfbd 223d aabc
00000030: c0a9 d23d 434a e3bd 01c1 1bbe c73e 5f3d
00000040: 70d3 00be c29f cfbc bd24 8abe be6d 343d
00000050: ac10 0ebd b1c3 c33a a939 1dbe e135 60bd
00000060: daf9 b93c aebc fd3e aa72 c9be 80c0 c73b
00000070: 2405 8d3d b8d8 493e 3284 57bc 636d 0a3f
00000080: 9d71 57be a2a1 d1bd dab0 41bd 6ad4 003e
00000090: a4db 6e3e 0b85 283d 7596 063f af39 1fbd
000000a0: bcb8 cebd 8532 f33e 204d 783e 2e45 8ebb
000000b0: 04e0 46be 4041 93be 2f3f 2cbe 9a73 3ebd
000000c0: ccc7 22be b47f 873d abdd 4fbf 7622 16bc
000000d0: 6d97 cabd 1086 fdbd 68b9 c7bb 54a1 063d
000000e0: 7448 4d3d c86b a13d 1895 26be cb10 cfbc
000000f0: 0c76 81bd 75f7 06be 5987 33be 905f efbd
-0.09744315 -0.18475278 0.3408583 -0.12488619 -0.12783496 -0.14549787 0.07058273 0.05214594
-0.05828997 -0.113691345 -0.09360204 -0.020781104 0.102862835 -0.11098149 -0.15210344 0.05450323
-0.12580657 -0.025344733 -0.26981154 0.04404997 -0.03468387 0.001493564 -0.15354027 -0.054738883
0.022702146 0.49558014 -0.39345294 0.006095946 0.06885746 0.19711578 -0.013154076 0.5407316
-0.21039434 -0.10235907 -0.0472878 0.1258103 0.23325974 0.041142505 0.5257333 -0.03887337
-0.10093829 0.4749948 0.24248171 -0.004341743 -0.19421393 -0.2876072 -0.16820978 -0.046496965
-0.15896529 0.06616154 -0.81197613 -0.00916349 -0.098921634 -0.12379086 -0.0060951 0.0328687
0.050117925 0.07881886 -0.16267812 -0.025276562 -0.06321344 -0.13180335 -0.175321 -0.11688149

weight f4 [64, 64]
00000000: acef 3a3e b541 093e aad1 0abe 3bb3 7dbc
00000010: bcad 913d fc5a 8c3d a58c 0dbc 0d07 9cbc
00000020: aa12 6ebe b920 9fbe 53b0 25bd f9ba 833d
00000030: f5cb 953b 1a05 12be dddf 83be eb79 03be
00000040: e1ce 6ebe e059 2c3e 5295 e6bc 1dbd f03b
00000050: 0992 003e debc 1fbe 66bf 2abe ea0d e3bc
00000060: 598a 29bc a4ce 67bd fe64 89be 735e b7bd
00000070: 5cbf 313e de69 a33d 4d06 f73c 64c6 91be
00000080: 2b2e 653d 7b62 49be 5856 443d c0ec 043d
00000090: eb84 debd 0c94 543e 015c 0d3e f1b4 a1be
000000a0: d611 11be 64a0 033f 6a1b e13c fc05 3bbd
000000b0: b8d4 c33d 00e8 59bd 48d8 12bd 8fba 2ebd
000000c0: d9ca fbbd c989 e6bd 92f6 53be b458 12bb
000000d0: 084a 033e 8927 db3d 23e6 003c 61dc bdbd
000000e0: a5ce 6c3d 1343 013c dabe 61be 6830 05bc
000000f0: 2140 273e 21bd 27bd 1d08 843b b6b0 4e3e
00000100: 695a d7b9 e35e c5be 7c8b b63b ae74 15bf
00000110: 0d24 8d3d c40f cd3e 0966 e73b 4f72 d73e
00000120: 372d 47bd ea12 ab3e a995 86be 9953 f73d
00000130: 361b 94be 21e2 af3e 81e9 a53d 2935 d63e
00000140: 71cc df3c 299c 2b3e 3cf5 643e e5f8 e8bd
00000150: c6b2 21be e6ea b03e a5ee cc3e 6b19 423e
00000160: bdf3 f1be e29d 17bd f4f6 823e b7d7 1c3e
00000170: d762 513b f3d1 62bd 1e67 60be ded4 803e
00000180: 51e6 54bd 50b2 01bf 2bd4 35be cef2 833d
00000190: 5e8e 243d 3f28 c5be ab2d 0ebd f81a 15be
000001a0: 6f51 0a3e 2b10 bf3d 55fb 56be fff4 80bd
000001b0: 629a 063f 6c57 9f3d 58fd ec3c e57c e63e
000001c0: 332b 623e 2d9f c13e 6ec0 27bd ea00 bc3e
000001d0: ce65 2ebe ca6f 44bd 57f7 55bd 463f 1dbd
000001e0: 5182 74be 55cb 0dbe 434e cf3e 1569 a33e
000001f0: c6d3 61be f159 e23d 46cb 39bf bff7 90be
00000200: a455 4bba 1e41 a6bb 6a6a c4bc 0ebd 0f3e
00000210: 8ee9 3abc 258a 59be 1b31 01bd 848b 05bf
00000220: d6cd d8bd 7ac2 5fbe 98f9 643e 9ff4 9f3d
00000230: 0ad6 24bd 323e 88be f11f 1dbd 64f4 da3d
00000240: 4dec 1dbe 629e 313e 9f70 52bc 5f2b 3abc
00000250: ced7 3abd a98e e2be 948d 12be d431 f1bd
00000260: dbf5 5cbd fa25 e23d 62ef 19bf a391 323e
00000270: 838a d3bd 2e03 38be 9b5c 3cbc 883d ae3c
00000280: bcc2 ba3c c752 903e ec35 663d 7c78 20bb
00000290: 5002 38bb cafc d7bd 8d5c ba3c fc51 463d
000002a0: 2cc4 383d caed ca3e 73ce 853e d5d3 213c
000002b0: b9c5 d4be 3a1f f7bd 2ef5 8a3d 74fe c5be
000002c0: a219 e9be c043 0bbe 3e8b b7bd b414 153d
000002d0: a65b 64bd 9d9f f43d 8a25 a3bc ff80 a23d
000002e0: e6ca 343e c1ae 803a de14 b93d 0ada 473e
000002f0: 4369 1f3d 4cfc c5bd 74d4 593e 8932 f33d
00000300: 1ccc c23d f90e a0bd e4df d9bd c3ba 763e
00000310: a282 013d 5958 b03c e054 5b3e 3c36 f13d
00000320: e3c0 0fbe 7617 2abc 6bb8 893c 6660 9fbb
00000330: 6d88 5abe 2de9 a13d 8863 51bc 8929 9c3e
00000340: f463 5fbd c688 72bc 6bbe 51bd 470e a63b
00000350: f8c3 0c3e 73ea 173e fb21 78bf afab 9dbc
00000360: 8cd7 ddbd 87ce 423d 4d87 f63c 8d6a 713e
00000370: 08a0 2b3e 44b6 013c aa26 d03a 979c b6be
00000380: 8727 bf3c 0502 ec3d 23a5 9dbd b1bc 15bd
00000390: b206 f23d 0bfb a7be 7fcd 8abe e1b2 e1bc
000003a0: be5c 453e a33a c83e dd68 b33d b753 f9bd
000003b0: 76e8 59be d954 7a3d 3050 b8bd 12e2 babe
000003c0: 8ed6 c93d 0a32 e5bc f21f a63d f27c 0cbe
000003d0: e217 663d dc91 933c 50c2 513e 15d0 a5bc
000003e0: 9a6a 1abe c0bb 6bbb 6098 1e3d 9045 7fbc
000003f0: f70e 913d 32fe 7f3d d272 ca3d 85c8 0d3c
0.1825549 0.13403971 -0.13556543 -0.015484626 0.07113215 0.068532914 -0.008639489 -0.01904633
-0.23249307 -0.31079653 -0.04045136 0.064321466 0.0045714327 -0.14259759 -0.25756732 -0.12839477
-0.23321106 0.1683116 -0.028147373 0.007346763 0.12555708 -0.15599391 -0.16674575 -0.027716596
-0.010347926 -0.056593552 -0.26834863 -0.08953562 0.17358154 0.07979177 0.030154372 -0.28471673
0.055952232 -0.19666474 0.047933906 0.032452345 -0.10865196 0.207596 0.13804628 -0.3158336
-0.1416696 0.5141661 0.027478892 -0.045660004 0.09562057 -0.053199768 -0.035850793 -0.042658385
-0.122945495 -0.11256749 -0.20699528 -0.0022330703 0.1282121 0.107009 0.007867369 -0.092705496
0.05781426 0.007889527 -0.2204546 -0.008129217 0.16333057 -0.04095185 0.0040292875 0.20184597
-0.00041075356 -0.38548955 0.005570827 -0.58381164 0.06891642 0.4005109 0.007061724 0.42079398
-0.048627105 0.33412868 -0.26286057 0.12076492 -0.2892701 0.3435221 0.08101178 0.41837433
0.027319165 0.16758789 0.22359174 -0.11375598 -0.15790853 0.34554213 0.4002582 0.18955009
-0.4725627 -0.037015803 0.25579035 0.15316664 0.0031949782 -0.055376004 -0.21914336 0.25162405
-0.05197746 -0.5066271 -0.17756717 0.06442796 0.040174834 -0.38507268 -0.03471152 -0.14561069
0.13507627 0.09329256 -0.20994313 -0.06296729 0.5257932 0.07780346 0.028929397 0.45017162
0.22086792 0.37816754 -0.040955 0.36719447 -0.17031023 -0.047958173 -0.052237835 -0.03839042
-0.23877837 -0.13847096 0.40489396 0.3191611 -0.22053441 0.11052311 -0.72575796 -0.28314015
-0.0007756597 -0.0050736805 -0.023976523 0.14036962 -0.011408223 -0.21244104 -0.03154097 -0.5216601
-0.10586135 -0.2185153 0.22360837 0.0781033 -0.040243186 -0.2660995 -0.03836054 0.10691145
-0.15422173 0.17345574 -0.012844234 -0.01136288 -0.045615964 -0.44249466 -0.1431182 -0.11777082
-0.053945404 0.110424 -0.60130894 0.17438368 -0.103291534 -0.17969963 -0.011496688 0.021269575
0.022797935 0.28188154 0.056203768 -0.0024485877 -0.002807755 -0.105462626 0.02274921 0.04841803
0.04510896 0.39634544 0.2613407 0.009877165 -0.415571 -0.12066503 0.067850456 -0.38670695
-0.4552737 -0.13600063 -0.08962105 0.036396697 -0.055751465 0.11944506 -0.019915361 0.0793476
0.17655525 0.0009817706 0.09037183 0.19516769 0.038918745 -0.096672624 0.2127245 0.11874873
0.09511587 -0.07815356 -0.10638407 0.24094681 0.03161872 0.021526502 0.21419096 0.117779225
-0.14038424 -0.01038157 0.01681157 -0.0048637865 -0.21341105 0.07905803 -0.012780078 0.3050044
-0.054538682 -0.014803117 -0.051206987 0.00506762 0.13746631 0.14835529 -0.9692685 -0.019246904
-0.10832128 0.04756024 0.030093813 0.23575802 0.16760266 0.007916991 0.0015880663 -0.35666344
0.023334278 0.11523823 -0.07697513 -0.036556903 0.11817683 -0.32808718 -0.27109906 -0.027551116
0.1927366 0.39107236 0.087602355 -0.121741705 -0.21280083 0.061116073 -0.089996696 -0.36500603
0.09855376 -0.027977962 0.08111562 -0.13719538 0.05617512 0.018013887 0.2048428 -0.020240823
-0.15079728 -0.0035970062 0.038719535 -0.01558055 0.070829324 0.06249828 0.098851815 0.008653765

bias f4 [64]
00000000: b542 a2bd da76 31be e698 7f3e ec93 0d3e
00000010: 4661 48be c48d 8581 4588 dc3d b391 7b3b
00000020: 26c2 2bbe 5dff 5899 daec f0be 680d 603e
00000030: 1b20 45bc 4626 073e 5101 f8bd c113 a43d
00000040: a33b f73b 091f 6abd 19ce 79bd e833 c63c
00000050: 42f0 91be 7caa a03e c6e0 efbd 3b49 e23c
00000060: 9c90 e2bd fba8 ac3c f394 583e af87 bfbe
00000070: e892 e8be b589 a1be 595d 05bd cfa5 c13c
00000080: 0ef6 6abe 65b9 47be 5b9f 33bd 9c46 8e81
00000090: bfc3 8d3e dec0 963d f80b fa84 e6f6 9c3d
000000a0: 6206 793e d1d0 73bd cd22 353e 13dd 6f3d
000000b0: ba04 43be f3f1 d8bd ffb6 3bbe 1dd3 353c
000000c0: 4fba 283d 25b7 0bbe 31d3 c43d 130c c6bd
000000d0: 2b21 89be 8964 db3c 657f b43c 0f40 a2be
000000e0: a51e 1dbe 655b 9bbe 85cb 983d 16ee ba3c
000000f0: 7425 8e81 07e0 9a3c 6a11 083e 65a8 ccbc
-0.079228796 -0.17330495 0.2496067 0.13825959 -0.19568357 -4.905991e-38 0.10768179 0.0038386404
-0.1677328 -1.12185085e-23 -0.47055703 0.21880114 -0.01203158 0.13198194 -0.12109626 0.0801158
0.007544951 -0.057158504 -0.060987566 0.024194673 -0.28503615 0.3138007 -0.11712794 0.02762281
-0.11062738 0.02107667 0.2115057 -0.37408206 -0.4542458 -0.31550375 -0.032559726 0.023638634
-0.22945425 -0.19504316 -0.043853145 -5.226388e-38 0.27688405 0.07361005 -5.878571e-36 0.0766428
0.24318841 -0.059525315 0.17689057 0.058560442 -0.19044772 -0.10593023 -0.18331526 0.011097697
0.041193303 -0.13644083 0.09610594 -0.09670272 -0.26783118 0.026781337 0.022033403 -0.31689498
-0.15343721 -0.30343166 0.07460693 0.022818606 -5.2216304e-38 0.018905653 0.13287893 -0.02498264

weight f4 [1, 64]
00000000: 3780 af3d eafe 263f 787e edbd bbba 7dbd
00000010: 00fa 48bf f09a 8581 31f3 183e 4872 2fbe
00000020: d4c1 b03e eebd 111b fc1c fcbf 918d 63bd
00000030: a2a7 0d3f b7ab abbd e6a8 003f 0543 233f
00000040: 323f 06bf 3813 6b3f e606 373f 39d4 43be
00000050: db14 813f fab5 183e ec4f 05bf 191c 113d
00000060: 18e6 72bf 6dec fb3e 0fd7 18bd dd3f 6e3f
00000070: aa91 3140 ff01 8f3e 2651 06bd bbca 0a3d
00000080: f628 fd3e 214f 92bf 9d4d 953e b49a 8501
00000090: 9f21 8d3d dbbf dc3d 47f9 5405 445e d23d
000000a0: 86c9 813d c55c 90be 4ce6 4e3d b9fc 783e
000000b0: cb03 633e 68b5 1e3e 7ffe 123f 9f5c b0bd
000000c0: 3acf 69be 3453 493d cad8 66bd ed98 b6be
000000d0: 4049 d03f 0d5f 80be 1124 a0bf 7ef4 04c0
000000e0: 950f 21bf 077b a6bf a56f bdbe ec5d 7bbd
000000f0: b2af 8581 25c1 333e 2b7d 303e a465 a33e
0.08569377 0.6523272 -0.115963876 -0.06194566 -0.7850647 -4.907881e-38 0.1493652 -0.17133439
0.3452288 1.2055488e-22 -1.9696345 -0.05555493 0.5533391 -0.083823614 0.5025772 0.6377414
-0.5244018 0.918262 0.714949 -0.19123925 1.008449 0.14913169 -0.52075076 0.035427187
-0.94882345 0.49203816 -0.03731447 0.930662 2.7745156 0.2793121 -0.032792233 0.033884745
0.49445313 -1.1430398 0.29160777 4.907847e-38 0.06891178 0.10778781 1.0013977e-35 0.10271886
0.06337266 -0.28195778 0.050512597 0.24315156 0.22169416 0.15498888 0.5741958 -0.08611416
-0.22832957 0.049151614 -0.05635909 -0.35663548 1.6272354 -0.25072518 -1.2511007 -2.0774226
-0.629144 -1.3006295 -0.3699924 -0.061368868 -4.9108594e-38 0.17554148 0.17235248 0.31913483
