src/nnue/64indepth.pt (torch, 229083 bytes, 5 tensors)

weight f4 [64, 787]
0	0x0185b29a	4.9112765e-38
1	0xbe0e5382	-0.13899043
2	0xbe3ec647	-0.18630324
3	0xbe148dfb	-0.14507286
4	0xbe0c41e6	-0.13697013
5	0xbcb85b48	-0.022504464
6	0x818583b1	-4.904545e-38
7	0xbccee128	-0.025253847
8	0xbd40161f	-0.046896096
9	0x3d28c4c4	0.041203275
10	0x3e2264b8	0.15858734
11	0xbdaa3950	-0.08311713
12	0x818592d0	-4.906715e-38
13	0xbdf82013	-0.12115493
14	0xbe7b2840	-0.24527073
15	0xbe3affc9	-0.18261637
16	0xbe06ec24	-0.13176018
17	0xbd8b695a	-0.068072036
18	0x818590a3	-4.906403e-38
19	0x3e19d0c7	0.15021048
20	0x3d745d28	0.059659153
21	0x3d9f2726	0.07771139
22	0x3e2679fa	0.16257468
23	0xbd3ab23c	-0.045580134
24	0x018598b4	4.90756e-38
25	0xbdbdd150	-0.09268439
26	0xbe224e7d	-0.15850253
27	0xbe60ab9c	-0.21940464
28	0xbe6402c0	-0.22266674
29	0x3a92c024	0.0011196178
30	0x0185a8fb	4.909896e-38
31	0xbd5019bf	-0.050805803
32	0xbc581877	-0.013189427
33	0x3dd69870	0.10478294
34	0x3d439fc8	0.0477598
35	0x3d6e8b41	0.05823827
36	0x81858cf1	-4.9058725e-38
37	0xbe1fed92	-0.1561797
38	0xbe2554dd	-0.16145654
39	0xbe5b2704	-0.21401602
40	0xbe2cd712	-0.16878918
41	0xbc86f2d6	-0.016473215
42	0x8185a2ac	-4.9089907e-38
43	0xbd4393bb	-0.04774831
44	0xbdaea8c8	-0.08528286
45	0x3def28c0	0.11677694
46	0x3e0c8a26	0.13724574
47	0x3d6c63c4	0.05771233
48	0x0185976e	4.9073775e-38
49	0xbcfb364d	-0.030665541
50	0xbe613caa	-0.21995798
51	0xbe4e3cd6	-0.20140395
52	0xbe959aa6	-0.2921955
53	0xbcb64278	-0.022248492
54	0x8185a524	-4.909345e-38
55	0x3d504222	0.05084432
56	0x3dc36c71	0.09542168
57	0x3e299150	0.16559339
58	0x3e085024	0.13311821
59	0x3d211938	0.03933069
60	0x0185943f	4.9069207e-38
61	0xbd8c93e0	-0.068641424
62	0xbd0bf94a	-0.034173287
63	0xbe45012d	-0.1923873
64	0xbdc0812d	-0.09399638
65	0x3ba18372	0.0049289996
66	0x8185a88c	-4.9098337e-38
67	0x3e205c47	0.15660201
68	0x3d1b75ac	0.037954018
69	0x3d20e89a	0.039284326
70	0x3e1c8f87	0.15289126
71	0x3cf7e9b2	0.030262802
72	0x8185af09	-4.9107647e-38
73	0xbda50b25	-0.08058766
74	0xbdadc71e	-0.08485244
75	0xbdbdce16	-0.092678234
76	0xbdc6a5b8	-0.09699577
77	0xbd827e5e	-0.06371759
78	0x0185ada2	4.9105635e-38
79	0x3c6209c4	0.013796274
80	0x3dd93778	0.10606283
81	0x3d13ec7e	0.03611421
82	0x3dca7495	0.098855175
83	0x3db9d009	0.09072883
84	0x8185b3cd	-4.9114485e-38
85	0xbd88da99	-0.06682319
86	0xbe040073	-0.12890796
87	0xbe082d7b	-0.132986
88	0xbe4041da	-0.1877512
89	0x3d9fc053	0.07800355
90	0x018591ca	4.906568e-38
91	0x3e091b27	0.13389264
92	0x3d527c7d	0.051388253
93	0x3d7f9656	0.06239923
94	0x3e285360	0.16438055
95	0x3cb8694d	0.022511149
96	0xbd325303	-0.043536197
97	0xbe677d33	-0.22606353
98	0xbdd89b1c	-0.1057646
99	0xbdcded82	-0.10055067
100	0xbece96fb	-0.40349564
101	0x3d808277	0.06274884
102	0x3d9f3548	0.077738345
103	0x3d638e50	0.05555564
104	0x3d7a12da	0.061053135
105	0x3dba4ca2	0.09096648
106	0x3de5b5ea	0.11216338
107	0x3bdeb604	0.0067966003
108	0xbcf59eb5	-0.029982904
109	0xbe1b4367	-0.1516243
110	0xbdae3f8a	-0.08508213
111	0xbe76c3d0	-0.24098134
112	0xbe387609	-0.18013777
113	0xbda45f4c	-0.08025989
114	0x3dfc4ce1	0.12319351
115	0x3d85473d	0.06507728
116	0xbcca475b	-0.024692228
117	0x3cb59039	0.022163497
118	0x3e01376a	0.12618795
119	0xbd767e47	-0.06017902
120	0xbcc512f2	-0.024056885
121	0xbdda3ce8	-0.10656148
122	0xbe415c59	-0.18882884
123	0xbe17db3d	-0.14829727
124	0xbe85280e	-0.26007122
125	0xba3005cd	-0.00067147316
126	0x3e09d93c	0.13461775
127	0x3d8a3dd3	0.06750073
128	0xbd3e56b5	-0.04646941
129	0x3db5ee68	0.08883363
130	0x3e1852cf	0.14875339
131	0x3cde2b57	0.027120275
132	0xbde82c5c	-0.11336586
133	0xbdc6b6d1	-0.09702838
134	0xbd9668be	-0.07344197
135	0xbe2e31f5	-0.17011245
136	0xbe47b94d	-0.1950428
137	0xbd1acf97	-0.03779563
138	0x3e1d8973	0.15384464
139	0xbc87b34a	-0.016564984
140	0x3dc2d4fe	0.09513281
141	0x3cc7bf42	0.024383191
142	0x3e041c9e	0.12901542
143	0x3d17e491	0.037083212
144	0xbd53834c	-0.051638886
145	0xbdbe3ac0	-0.092885494
146	0xbdf084c1	-0.11744071
147	0xbe2303cf	-0.15919422
148	0xbe7008dc	-0.2344088
149	0x3c0463bf	0.008080422
150	0x3e2c681b	0.16836588
151	0x3da30845	0.07960562
152	0x3d199087	0.037491348
153	0x3d4f6ad2	0.05063898
154	0x3e4591a9	0.19293846
155	0x3d81afef	0.06332385
156	0xbd2516dc	-0.040305004
157	0xbd04f7c7	-0.03246286
158	0xbdf1ebbb	-0.1181254
159	0xbe2e2ddc	-0.17009681
160	0xbe404435	-0.18776019
161	0xbc10ff96	-0.008849999
162	0x3dc6d91f	0.09709381
163	0xbccf9f37	-0.025344474
164	0x3d9cd3d0	0.076575875
165	0x3d22ca77	0.039743867
166	0x3de44edd	0.111478545
167	0x3d6c96c7	0.05776098
168	0xbdbafb21	-0.0912993
169	0xbde70863	-0.112808965
170	0xbe1f7dcb	-0.1557533
171	0xbde7b957	-0.11314648
172	0xbe29619b	-0.1654114
173	0xbca24d2f	-0.019812195
174	0x3b71e85c	0.0036912179
175	0x3d4aa850	0.04947692
176	0xbd09e6f2	-0.033667512
177	0x3d2c8b07	0.042124774
178	0x3dbb7f8c	0.09155187
179	0x3d065542	0.032796152
180	0xbd35aeaf	-0.044356044
181	0xbd674b11	-0.056468073
182	0xbddeebab	-0.10884794
183	0xbdf215b0	-0.11820543
184	0xbe23daa1	-0.16001369
185	0x3d433a96	0.047663294
186	0x3d937e12	0.072017804
187	0xbdcee644	-0.101025134
188	0xbdba870d	-0.0910779
189	0x3d3a90fd	0.045548428
190	0x3e17c608	0.14821637
191	0xbd01f211	-0.031724993
192	0xbd235f41	-0.039885763
193	0xbe61143c	-0.21980375
194	0xbe36ae4c	-0.17839926
195	0xbe077720	-0.13229036
196	0xbe534031	-0.20629956
197	0xbd1bc961	-0.038033847
198	0x3d940c2e	0.072288856
199	0xbc1ee8a0	-0.009699017
200	0xbcbe5b85	-0.023237
201	0x3d576849	0.05258969
202	0x3d9cc1c0	0.076541424
203	0x3d249a21	0.04018605
204	0xbb8e9c33	-0.0043521165
205	0xbe054fcd	-0.13018723
206	0xbd6c8d8a	-0.05775217
207	0xbe46607d	-0.19372745
208	0xbe82f34f	-0.25576255
209	0xbc6947a1	-0.014238269
210	0x3e0b97cc	0.13632125
211	0x3d4e20d0	0.05032426
212	0xbcf3cad6	-0.029759806
213	0x3dbbe97c	0.09175393
214	0x3e065c0d	0.13121052
215	0xbcc28339	-0.023744212
216	0xbc50986f	-0.0127316555
217	0xbe0121bf	-0.1261053
218	0xbe155f21	-0.1458707
219	0xbe4d92fc	-0.20075601
220	0xbe4b318a	-0.19843116
221	0xbca5a0e8	-0.020218328
222	0x3dac87d3	0.08424344
223	0x3d165874	0.03670545
224	0xbc03484d	-0.008012843
225	0x3d1f43e2	0.038883097
226	0x3e033398	0.1281265
227	0xbcf8f4bb	-0.030390134
228	0xbcf83248	-0.030297413
229	0xbde3e46d	-0.11127553
230	0xbe0aaabd	-0.13541694
231	0xbe814905	-0.25251022
232	0xbeb5393e	-0.35395235
233	0x3d10a631	0.035314742
234	0x3e0b9d4d	0.13634224
235	0x3ca93eda	0.020659853
236	0x3d67a465	0.056553263
237	0x3d602ddb	0.05473123
238	0x3d98b67d	0.07456682
239	0xbb3e9323	-0.00290794
240	0xbd5952ba	-0.05305741
241	0xbe3f2749	-0.1866733
242	0xbe1b486d	-0.15164347
243	0xbe0aa599	-0.13539733
244	0xbe2a2a82	-0.16617778
245	0x3b4d1266	0.0031291484
246	0x3e0ededf	0.13952206
247	0x3d258478	0.040409535
248	0x3cb6410b	0.022247812
249	0x3df19192	0.117953435
250	0x3e061278	0.13092983
251	0x3dae502d	0.08511386
252	0xbc4f15ec	-0.012639504
253	0xbde9feba	-0.11425538
254	0xbddac846	-0.106827304
255	0xbe2d314d	-0.16913338

bias f4 [64]
0	0xbd94db56	-0.072683975
1	0x3cb5d02e	0.022193994
2	0x3e69daff	0.22837447
3	0x3e8b9384	0.27260983
4	0xbc255512	-0.010091083
5	0xbad19802	-0.0015990736
6	0xbd5d644e	-0.054050736
7	0x3e6d4a8e	0.23172972
8	0x3d3e6649	0.046484265
9	0xbd485178	-0.04890582
10	0x3e165886	0.14682207
11	0xbec1884a	-0.37799293
12	0x3dcc9dd7	0.09991043
13	0xbd92bf0a	-0.07165344
14	0xbcdde0dd	-0.027084762
15	0x3e55ac6f	0.2086656
16	0x3e10cd97	0.14140926
17	0x3b5706f3	0.0032810539
18	0x3d24bf7c	0.040221676
19	0x3e0839a8	0.13303244
20	0x3c8e9b9f	0.01740819
21	0x3e326f18	0.17425191
22	0xbd76e367	-0.06027546
23	0xbd99fef5	-0.07519332
24	0xbdc3dcae	-0.09563576
25	0xbd5bfb29	-0.053706322
26	0x3e1557a4	0.14584213
27	0x3d4d4e76	0.050123654
28	0xbdb8d1f1	-0.09024418
29	0x3debe1ee	0.11517702
30	0xbde97b15	-0.11400429
31	0xbd56bcd9	-0.052426193
32	0xbc2691a9	-0.010166564
33	0xbd97a6b2	-0.074048415
34	0x3d28324d	0.041063596
35	0x3ec7c71b	0.39019093
36	0x3c2accd6	0.010424813
37	0x3d7f1cd0	0.062283337
38	0x3e2b1627	0.16707669
39	0xbe00ce4b	-0.12578695
40	0x3e1591b8	0.14606369
41	0x3cb7f39f	0.022455035
42	0x3e326b91	0.17423846
43	0xbe2c1ebd	-0.168086
44	0x3b251966	0.002519214
45	0xb88b29a0	-6.63579e-05
46	0x3e82c501	0.25540927
47	0xbeac6265	-0.3366882
48	0x3c4584c1	0.012055577
49	0x3e16bb1f	0.14719819
50	0x3daed059	0.08535833
51	0x3d209f33	0.039214324
52	0x3ceac7d2	0.028659735
53	0x3d81ef40	0.063444614
54	0xbe2a239e	-0.1661515
55	0x3d8451ab	0.064608894
56	0x3ded7b23	0.11595752
57	0xbde1b587	-0.11020952
58	0x3e1c5e03	0.15270238
59	0xbd0639fa	-0.032770135
60	0x3da70e8d	0.08157072
61	0xbdb4f488	-0.08835703
62	0xbe0f4d4e	-0.13994333
63	0xbdd579ec	-0.104236454

weight f4 [64, 64]
0	0x3dd74c9e	0.105126604
1	0x3e2920aa	0.16516367
2	0x3d5a1e32	0.053251453
3	0x3dc41a03	0.09575274
4	0x3d92d04d	0.071686365
5	0x3df62174	0.120180994
6	0xbb1b858c	-0.0023730723
7	0xbe80293f	-0.25031468
8	0x3d747a6c	0.059687063
9	0xbd146a56	-0.036234222
10	0x3d974c9d	0.0738766
11	0xbdcd32c7	-0.10019451
12	0x3d8d78f3	0.06907835
13	0xbda194d3	-0.07889714
14	0x3e239f9c	0.15978855
15	0xbdbec258	-0.09314412
16	0x3dffc3fa	0.124885514
17	0x3cda5903	0.026653772
18	0x3e7539b7	0.23947798
19	0xbd74a0a0	-0.059723496
20	0x3cd99ccc	0.026564024
21	0x3ddd0e7d	0.10793779
22	0xbe0ac41c	-0.13551372
23	0x3c91d3f0	0.017801255
24	0x3c10c2ef	0.008835538
25	0x3cc17c34	0.023618795
26	0x3e0ea642	0.1393061
27	0x3d4b06ba	0.04956696
28	0x3d92b26d	0.07162938
29	0x3d57ac77	0.05265471
30	0xbcc42a9e	-0.023946103
31	0x3d96b12d	0.07358012
32	0x3d877633	0.066143416
33	0x3d17d45f	0.037067767
34	0x3d375842	0.044761904
35	0x3e10f967	0.1415764
36	0xbd3109ec	-0.043222353
37	0xbdfab54c	-0.12241611
38	0xbda9fb91	-0.082999356
39	0x3e91d7c8	0.2848494
40	0x3e687a4f	0.22702907
41	0x3e039212	0.1284869
42	0x3e1d3bdc	0.15354866
43	0xbdd62467	-0.10456162
44	0x3de2cf9d	0.11074755
45	0x3da3ad35	0.07992021
46	0xbcda0189	-0.02661206
47	0xbd161fa3	-0.036651265
48	0x3c1f42cd	0.009720516
49	0x3de193e3	0.11014535
50	0x3d355026	0.04426589
51	0xbe574465	-0.21022184
52	0xbe21027e	-0.15723607
53	0xbdeaa371	-0.11456955
54	0xbd1c54b9	-0.038166735
55	0x3e1a2b9f	0.15055703
56	0x3bf2162f	0.0073878984
57	0x3e5d8547	0.21632873
58	0xbd18c67c	-0.037298664
59	0x3b6fba01	0.0036579373
60	0x3d6443a2	0.055728562
61	0x3d51aa30	0.051187694
62	0xbea6735c	-0.32509887
63	0x3c29b40d	0.010357869
64	0xbbea8acf	-0.0071576606
65	0x3dd3d883	0.10344031
66	0x3e437f31	0.19091488
67	0x3e6d4682	0.23171428
68	0xbde5e150	-0.112246156
69	0xbee38b84	-0.4444238
70	0xbd80b2fa	-0.06284137
71	0x3d1fa0ef	0.038971838
72	0x3d22b591	0.039723936
73	0xbe68667e	-0.22695348
74	0x3dbf74f1	0.09348477
75	0x3e58d344	0.21174341
76	0xbe888c92	-0.26669747
77	0x3e0a5927	0.13510571
78	0xbdebd1b1	-0.11514605
79	0xbd6c3969	-0.057671938
80	0xbf21ccc8	-0.63203096
81	0x3dac7995	0.084216274
82	0xbc1eb4cb	-0.009686659
83	0x3f2cf00c	0.6755378
84	0xbe704669	-0.2346436
85	0x3e84a53e	0.2590732
86	0x3d4a5cb2	0.049404807
87	0x3dd999ec	0.106250614
88	0xbe0108d2	-0.12601021
89	0xbdfdee48	-0.12398964
90	0x3e71ad77	0.23601328
91	0xbe5c4546	-0.215108
92	0x3df1814a	0.11792238
93	0xbf05a1e5	-0.52200156
94	0xbe24f07d	-0.16107364
95	0xbddf0714	-0.10890022
96	0x3e16e084	0.14734083
97	0x3d239bf5	0.039943654
98	0xbdfefbe7	-0.1245039
99	0x3e00478b	0.12527291
100	0xbc5194f0	-0.012791857
101	0xbcba468e	-0.022738721
102	0x3d41820a	0.047243156
103	0xbb5dc2d7	-0.0033838057
104	0x3e90a888	0.2825358
105	0xbd923780	-0.07139492
106	0xbec57a53	-0.38569888
107	0xbdedd94c	-0.11613712
108	0xbaf5f3af	-0.001876464
109	0xbe4f4534	-0.20241243
110	0x3e133122	0.14374211
111	0x3d57fdc4	0.052732244
112	0x3d13f368	0.036120802
113	0xbea055c2	-0.31315428
114	0x3e7384e8	0.23781168
115	0x3e11c10a	0.14233795
116	0xbe191e14	-0.1495288
117	0x3dfef2bf	0.12448644
118	0xbe558032	-0.20849684
119	0xbddc56b1	-0.107587226
120	0x3ded6ea2	0.11593367
121	0x3eb8a08d	0.3605999
122	0x3e991466	0.29898375
123	0xbd940ee3	-0.07229402
124	0x3e79fb57	0.24412285
125	0x3da0ff88	0.07861239
126	0xbf24ae4b	-0.6432845
127	0xbd3f256d	-0.04666655
128	0x3e5536d8	0.20821702
129	0xbb807ae5	-0.0039209
130	0x3ee04f11	0.43810323
131	0x3eb3278d	0.34991112
132	0x3da8758a	0.08225544
133	0x3db0acee	0.08626734
134	0x3e21fb29	0.15818466
135	0xbd52e972	-0.051492162
136	0xbe09275c	-0.1339392
137	0xbca69f2e	-0.020339575
138	0x3e7de9e0	0.24796247
139	0x3e1a1ca8	0.15049994
140	0x3d51f52d	0.05125921
141	0xbe16ccf3	-0.1472662
142	0xbdd1f327	-0.10251456
143	0xbdba510d	-0.090974905
144	0x3ef2f471	0.4745212
145	0xbe89b122	-0.26892954
146	0x3d461e61	0.048368815
147	0xbefb7dbc	-0.49119365
148	0xbc8c055a	-0.017092396
149	0x3e781fa6	0.24230823
150	0xbdb521d5	-0.088443436
151	0x3c29da06	0.010366922
152	0x3d9b82b0	0.07593286
153	0x3e25952d	0.16170187
154	0x3e3f8de5	0.18706472
155	0x3e511fa1	0.20422222
156	0x3dfdaf37	0.12386935
157	0xbcc1980c	-0.023632072
158	0xba9fbef9	-0.0012187652
159	0xbd920fe9	-0.07131941
160	0xbe264008	-0.16235363
161	0x3e04fefb	0.12987892
162	0x3d869293	0.065709256
163	0x3e16dd03	0.14732747
164	0xbdb827fe	-0.08992003
165	0xbe0044d9	-0.12526263
166	0x3ded25ab	0.1157945
167	0x3c39a882	0.011331679
168	0x3e323e34	0.17406541
169	0x3c7ffdb3	0.015624451
170	0x3dea5135	0.1144127
171	0x3ea4e8ad	0.32208768
172	0xbd11c7ff	-0.03559112
173	0x3daea250	0.085270524
174	0xbd07886e	-0.033089094
175	0x3e22d61f	0.15901993
176	0xbda0c4b2	-0.07850017
177	0x3f03f424	0.51544404
178	0x3dfaed94	0.12252346
179	0xbe02944f	-0.12751888
180	0x39c3b31b	0.00037326742
181	0xbebf3b8e	-0.37350124
182	0x3d6b5de4	0.057462588
183	0x3de87769	0.11350901
184	0x3c330b0c	0.010927927
185	0x3e4aebda	0.19816533
186	0xbe185823	-0.14877371
187	0x3d1b3e85	0.03790142
188	0x3e24fb16	0.16111407
189	0xbded2b57	-0.11580532
190	0xbdfd109b	-0.12356683
191	0xbe6e70bc	-0.23285192
192	0x3d2fc96e	0.042916708
193	0xbe481148	-0.19537842
194	0x3e22be57	0.15892921
195	0x3e4ab288	0.19794667
196	0x3c4534ae	0.012036486
197	0x3e027eb4	0.12743646
198	0x3ccb6c5c	0.024831943
199	0xbddfb95c	-0.10924026
200	0xbddb9a12	-0.10722746
201	0xbd3aeab1	-0.045633975
202	0x3cb3ac9d	0.021932894
203	0x3e0202d3	0.1269639
204	0xbd27b439	-0.040943358
205	0xbc54d2e3	-0.012989732
206	0xbc991cca	-0.018690486
207	0xbc4ac658	-0.01237639
208	0x3e915034	0.28381503
209	0xbdf86fcd	-0.12130699
210	0x3d98589e	0.074387774
211	0xbdf07820	-0.11741662
212	0xbbe4fb91	-0.006987997
213	0x3d914162	0.07092549
214	0x3d925b86	0.07146363
215	0xbe38f771	-0.18063141
216	0x3d9e1281	0.07718373
217	0xbb968c59	-0.0045943675
218	0x3d75966a	0.0599579
219	0xbb2adc7e	-0.0026071365
220	0x3d80b082	0.06283666
221	0x3e249b08	0.16074765
222	0xbd99abd1	-0.075034745
223	0xbc20dff8	-0.009819023
224	0xbdbc457b	-0.0919294
225	0xbe343c53	-0.17601137
226	0xbdcc4e1f	-0.09975838
227	0xbcebd163	-0.028786367
228	0x3bae766b	0.005324175
229	0xbd775d78	-0.060391873
230	0x3d5f9414	0.054584578
231	0x3e972572	0.29520756
232	0xbeee4ee0	-0.46544552
233	0xbe00828f	-0.12549804
234	0x3ec7996b	0.38984236
235	0x3b156b38	0.0022799503
236	0xbeabde1d	-0.33567896
237	0xbcd880eb	-0.02642866
238	0x3d98e9f0	0.07466495
239	0x3e4a0e4b	0.19732015
240	0xbdb74a55	-0.089497246
241	0x3d7d98e5	0.06191339
242	0xbe97691c	-0.2957238
243	0xbd88f64a	-0.06687601
244	0xbe02d678	-0.12777126
245	0xbdd1e050	-0.10247862
246	0xbcfff9cc	-0.031247042
247	0x3e803e02	0.25047308
248	0x3e06aa1b	0.13150828
249	0xbe430ab4	-0.19047052
250	0x3c59d4c2	0.013295354
251	0x3d80d5bf	0.06290769
252	0xbdb12bb6	-0.08650915
253	0x3e091374	0.13386327
254	0xbc1b2a13	-0.0094704805
255	0xbeb13fec	-0.3461908

bias f4 [64]
0	0xbd2008b3	-0.039070796
1	0xbea278bd	-0.3173274
2	0xbda04653	-0.07825913
3	0x3e28bfd4	0.16479427
4	0xbe04a08b	-0.12951867
5	0x3d5ebd20	0.054379582
6	0x3dd64fb5	0.10464422
7	0xbcb606b6	-0.022219997
8	0xbe6be7d7	-0.23037659
9	0xbd8672b6	-0.06564848
10	0xbdaebb8a	-0.08531864
11	0x3d0e61ad	0.03476112
12	0xbe24ce42	-0.16094306
13	0x3d8b3b81	0.06798459
14	0x3d307205	0.043077487
15	0x3c972a0a	0.018452663
16	0x3d79906b	0.060928743
17	0x3bdd7e68	0.0067594536
18	0x3e06a7f7	0.13150011
19	0xbd4a8c61	-0.049450282
20	0xbd800316	-0.062505886
21	0x993d6812	-9.792088e-24
22	0x3db458ac	0.08805975
23	0xbda7f5e0	-0.08201194
24	0xbda1d04c	-0.079010576
25	0xbe5a5c0b	-0.21324174
26	0xbd83a78d	-0.06428442
27	0x3ddeedd7	0.10885208
28	0xbc0ff2b7	-0.008785895
29	0x3dfb9aa1	0.122853525
30	0x3c38d392	0.011280911
31	0x3e419194	0.1890319
32	0xbd826a85	-0.06367973
33	0xbe581217	-0.2110065
34	0xbe22aa01	-0.15885164
35	0x3c9b9d69	0.018995957
36	0x3c6cb632	0.014447736
37	0x3e1729a3	0.14761977
38	0xbe585324	-0.21125466
39	0xbe2917b5	-0.1651295
40	0xbe2a1342	-0.16608909
41	0xbe96ff8c	-0.29491842
42	0xbd7b3c21	-0.06133664
43	0xbcbf4a5d	-0.023350889
44	0xbe16ecde	-0.14738795
45	0x3d89ac9a	0.06722374
46	0xbe0adab4	-0.13559991
47	0x3e26c7e8	0.16287196
48	0x3da7f69f	0.08201336
49	0xbe40e107	-0.18835841
50	0x3e000fdd	0.12506051
51	0xbd368d2f	-0.044568237
52	0xbc9cdb1b	-0.019147446
53	0x3e1ad0c5	0.15118702
54	0x3e37ef63	0.17962413
55	0x3db40f00	0.087919235
56	0xbc873fe1	-0.016509952
57	0xbe0cf77a	-0.1376628
58	0x3e070a86	0.13187608
59	0x3dc768cd	0.09736786
60	0xbd6aebda	-0.05735383
61	0xbe1f07b9	-0.1553029
62	0x3d83cc05	0.06435398
63	0xbdfe9a29	-0.124317475

weight f4 [1, 64]
0	0x3e2583bd	0.16163535
1	0xbf8f7e62	-1.1210444
2	0xbf1b3bc8	-0.60638094
3	0xbe862e42	-0.26207167
4	0x3f61dd31	0.88228136
5	0x3e7a1174	0.2442072
6	0x3f24d781	0.6439133
7	0x3e4aa674	0.1979006
8	0x3ee6c42c	0.45071542
9	0x3f71c427	0.9443993
10	0x3d299105	0.041398067
11	0xbd2dec68	-0.042461783
12	0xbfb884a0	-1.4415474
13	0xbf2b46bf	-0.66904825
14	0x3e1b25bc	0.15151113
15	0xbc8d5b49	-0.017255442
16	0x3e548fe3	0.20758013
17	0x3eac6c51	0.3367639
18	0xbe2b70ce	-0.1674225
19	0x3ecea7e1	0.40362456
20	0x3cdfef5d	0.027335817
21	0x9910938f	-7.474425e-24
22	0x3ea8c224	0.32960618
23	0x3d9c2564	0.07624319
24	0x3d86b3ee	0.065772876
25	0xbeca3240	-0.39491463
26	0xbeb81ea5	-0.3596088
27	0xbcaa2cf3	-0.020773387
28	0x3e358cf2	0.17729548
29	0x3d85ca98	0.06532782
30	0x3d6a440f	0.057193812
31	0x3ec98633	0.39360198
32	0x3f15fdde	0.58590496
33	0x3dd29909	0.102830954
34	0x3ee96e33	0.45591888
35	0x3e0fa9b9	0.14029588
36	0xbd931d36	-0.07183306
37	0xbd2a3999	-0.041558836
38	0xbe9f145d	-0.31070223
39	0xbe86023e	-0.26173586
40	0xbf50a9f1	-0.8150931
41	0xbf9a4597	-1.2052487
42	0x3dcbe744	0.0995622
43	0xbc234398	-0.009964846
44	0xbf2f19a5	-0.68398505
45	0xbd91a997	-0.07112425
46	0x3edc5ecc	0.43041074
47	0xbd3bb795	-0.045829374
48	0xbd65b6a0	-0.056082368
49	0x3f755ab4	0.95841527
50	0xbe02e168	-0.12781298
51	0x3e9f0351	0.31057218
52	0x3e5cd7aa	0.21566644
53	0xbe0dafa6	-0.13836536
54	0x3e4f9135	0.20270236
55	0xbeaeda11	-0.34150746
56	0xbe8a3833	-0.26996002
57	0x3f878cc3	1.0589832
58	0xbd9c11f4	-0.07620612
59	0xbf059657	-0.52182525
60	0x3d0aaee5	0.0338582
61	0xbf074254	-0.52835584
62	0xbdcba282	-0.09943105
63	0x3e964896	0.29352254
