src/nnue/hidden128best.pth (torch, 464989 bytes, 5 tensors)

fc1.weight f4 [128, 771]
0	0xaffd8c4f	-4.6120127e-10
1	0xbdb9dd10	-0.090753675
2	0xbde60026	-0.11230497
3	0xbd2e0b4f	-0.042491253
4	0xbdccb0dd	-0.099946715
5	0xbd148a44	-0.036264673
6	0x2fc4ccc9	3.57977e-10
7	0x3b1a3e70	0.002353575
8	0x3c9ae0aa	0.018905956
9	0x3d9dca41	0.077045925
10	0x3d279adb	0.040919166
11	0x3cb1027f	0.021607636
12	0xb0942406	-1.0778656e-09
13	0xbce17c6f	-0.027525155
14	0xbdb57564	-0.08860281
15	0xbcda2f16	-0.02663378
16	0xbdff7d38	-0.124750555
17	0x3bf09e7d	0.007343112
18	0xb0e296f1	-1.6486564e-09
19	0xbbf7af0d	-0.0075587095
20	0xbdeb5ae7	-0.114919476
21	0x3c3d6e2d	0.0115619125
22	0x3d9415b3	0.07230701
23	0x3d5543a5	0.052066464
24	0x30b14686	1.2898489e-09
25	0xbd90adfa	-0.070644334
26	0xbd4de6a0	-0.05026877
27	0xbd43c164	-0.047791854
28	0xbe0630a9	-0.131045
29	0x3cee9efe	0.029128548
30	0x30dac879	1.5918565e-09
31	0x3d7229b9	0.05912182
32	0xbc0d2883	-0.008615616
33	0x3d61ea82	0.055155285
34	0x3d6974a3	0.056996
35	0x3c97f9d2	0.01855174
36	0xb0498732	-7.33155e-10
37	0xbce9b69e	-0.028529461
38	0xbd12dccf	-0.03585511
39	0xbd5ce79c	-0.053931817
40	0xbd290a02	-0.04126931
41	0x3d4a2cad	0.049359012
42	0xb1993711	-4.4591464e-09
43	0xbd58f5a2	-0.05296863
44	0xbd2bbcbd	-0.04192804
45	0x3d89b874	0.06724635
46	0x3da684fa	0.08130832
47	0x3d50c45d	0.050968517
48	0x30694235	8.485899e-10
49	0xbd1ee715	-0.038794596
50	0xbdda6ea6	-0.10665636
51	0xbd686cb3	-0.05674429
52	0xbe00c9e3	-0.12577014
53	0x3c19321b	0.009350325
54	0xb1a523c2	-4.806197e-09
55	0xbb342a1a	-0.0027490915
56	0x3d14d08e	0.036331706
57	0x3d9462d5	0.07245413
58	0x3da08612	0.07838072
59	0x3d3c49be	0.045968764
60	0x30cf065e	1.5063042e-09
61	0xbd125272	-0.035723157
62	0xbcd9b8d0	-0.026577383
63	0xbcc88b65	-0.024480531
64	0xbdb1f52d	-0.08689342
65	0x3be61b72	0.0070223147
66	0xb0c1c553	-1.4098681e-09
67	0xbb923822	-0.004462258
68	0x3c6dc72f	0.014512821
69	0x3db9f521	0.09079958
70	0x3d2d5dbb	0.042325716
71	0x3d48cb92	0.049022265
72	0xb09ee37d	-1.1560669e-09
73	0xbd3eb8fa	-0.046563126
74	0xbcd730f4	-0.02626846
75	0xbdcd00ff	-0.100099556
76	0xbdabd653	-0.083904885
77	0x3d443119	0.047898386
78	0x30b38f90	1.3064767e-09
79	0x3d2498ca	0.040184774
80	0xbceb3051	-0.028709562
81	0x3ce3e62d	0.027819717
82	0x3d4c17dc	0.04982744
83	0x3d12c60f	0.035833415
84	0xb052a2f5	-7.662913e-10
85	0xbd06f294	-0.032946184
86	0xbd6dfc95	-0.05810221
87	0xbdd834ff	-0.10556983
88	0xbdf1b244	-0.118015796
89	0x3ab1b87a	0.0013559007
90	0xb10648d6	-1.9540969e-09
91	0xbaf92ace	-0.0019009949
92	0x3cf4d44a	0.029886384
93	0x3d78dcdf	0.060757514
94	0x3d9367ba	0.07197519
95	0x3c296245	0.010338371
96	0xbd1a82c5	-0.037722368
97	0xbd212981	-0.03934622
98	0xbd803bb3	-0.06261387
99	0xbdbe8712	-0.09303106
100	0xbe019910	-0.12656045
101	0xbbcd1004	-0.0062580127
102	0x3d49e728	0.049292713
103	0x3d136714	0.035986975
104	0xb9c1474a	-0.00036864943
105	0x3d0929a7	0.03348699
106	0x3d972b60	0.0738132
107	0x3d2dc207	0.042421367
108	0x3b446f20	0.0029973462
109	0xbd4bcda1	-0.04975665
110	0xbd188b0f	-0.03724199
111	0xbd223a12	-0.03960616
112	0xbd4c12a4	-0.049822465
113	0xbc90471d	-0.017612034
114	0x3d97caf6	0.074117586
115	0x3c8ea2a7	0.017411543
116	0xbd4eaab5	-0.050455768
117	0x3c56ffd6	0.0131225195
118	0x3dacce1a	0.08437748
119	0x3d1a16c7	0.03761938
120	0x3c42f6df	0.011899679
121	0xbd91e066	-0.07122879
122	0xbd0110c1	-0.03151012
123	0xbd8f57ca	-0.06999166
124	0xbdd2f638	-0.10300869
125	0xbcfe6276	-0.03105281
126	0x3d450248	0.04809788
127	0x3ce0737c	0.027398817
128	0xbc1785fb	-0.009248252
129	0xbd0a59a1	-0.033776883
130	0x3d9a8305	0.07544521
131	0x3cc6493b	0.02420484
132	0x3d2852af	0.04109448
133	0xbd688af8	-0.056773156
134	0xbd251679	-0.040304635
135	0xbdac7855	-0.08421389
136	0xbddb374a	-0.10703905
137	0xbd133d63	-0.035947215
138	0x3da22426	0.07917051
139	0x3bcc4a4b	0.0062344423
140	0x3d0fa104	0.035065666
141	0x3d35c1cc	0.044374272
142	0x3dbdfd14	0.092767864
143	0x3d82ee26	0.063930795
144	0xbd6f91f9	-0.05848882
145	0xbd6a33a8	-0.05717817
146	0xbc7893b5	-0.015171935
147	0xbbfefaa9	-0.007781346
148	0xbd971ff6	-0.07379143
149	0xbc32896d	-0.010897023
150	0x3d6cbf7b	0.057799798
151	0x3ccc63af	0.024949877
152	0x3c99db00	0.018781185
153	0xb9a0a9de	-0.0003064414
154	0x3dc03e02	0.09386827
155	0xba280675	-0.00064096536
156	0x3c098d7b	0.008395548
157	0xbd933501	-0.07187844
158	0xbccecf18	-0.025245234
159	0xbd31ce7e	-0.043409817
160	0xbdb35c4f	-0.08757841
161	0x3b93aa37	0.004506375
162	0xbc883995	-0.01662902
163	0x3c130ad5	0.0089747505
164	0x3cd87cdd	0.026426727
165	0x3d34cf87	0.044143226
166	0x3d2361e1	0.039888266
167	0x3d50c331	0.0509674
168	0xbd591d97	-0.053006735
169	0xbd138c5a	-0.03602252
170	0xbcebbcea	-0.028776605
171	0xbddc109f	-0.10745358
172	0xbde5391b	-0.11192533
173	0xbc77c850	-0.015123442
174	0x3d548a47	0.051889684
175	0x3d4c780a	0.049919166
176	0x3d72d67b	0.059286576
177	0x3d8ad527	0.06778937
178	0x3cd4969c	0.025950722
179	0x3d4e3189	0.05034021
180	0xbd3b916c	-0.045792982
181	0xbd91e97a	-0.0712461
182	0xbd6df211	-0.05809218
183	0xbd86227b	-0.065495454
184	0xbda6ea8a	-0.081502035
185	0x3b6da28b	0.0036260213
186	0x3d309539	0.04311106
187	0x3b07a8a7	0.002069989
188	0xbc91e5ce	-0.017809775
189	0x3d037341	0.032092337
190	0x3d308c80	0.04310274
191	0x3cc9829a	0.024598408
192	0xbcc020ca	-0.023453135
193	0xbd06ebf7	-0.032939877
194	0xbd58b68f	-0.052908476
195	0xbd4bae99	-0.049727056
196	0xbdadef3d	-0.08492897
197	0x3d55fecd	0.05224495
198	0x3d219e27	0.039457466
199	0x3d1a3d4a	0.037656106
200	0x3d55db01	0.05221081
201	0x3c974f4e	0.018470433
202	0x3df78990	0.12086785
203	0x3d1bb2f7	0.03801247
204	0x3bf191d8	0.0073721223
205	0xbd988e5a	-0.074490264
206	0xbcb2d41c	-0.021829657
207	0xbdcdb7e7	-0.10044842
208	0xbe036e24	-0.12834984
209	0x3bd61095	0.0065327385
210	0x3cfc6d0a	0.030813713
211	0x3c838bee	0.016057935
212	0x3b5106af	0.0031894853
213	0xbb8556f7	-0.004069205
214	0x3d4424a6	0.047886513
215	0x3d64a582	0.055821903
216	0xbb2e4ae9	-0.0026594943
217	0xbd154f58	-0.03645262
218	0xbd9328c7	-0.07185512
219	0xbd8c2aa4	-0.068440706
220	0xbdcc26c2	-0.0996833
221	0xbd487ac6	-0.04894521
222	0x3d8709ec	0.06593689
223	0x3d0bdf6a	0.03414861
224	0x3d277c23	0.04088987
225	0x3c89275a	0.016742397
226	0x3dd29117	0.1028158
227	0x3d0fd79b	0.035117727
228	0xbb78c9a0	-0.0037961975
229	0xbd143d43	-0.036191236
230	0xbd6278fe	-0.05529117
231	0xbc764162	-0.015030237
232	0xbde95a6b	-0.11394199
233	0xbcb8763a	-0.022517312
234	0x3d26f453	0.04076035
235	0xbd16d5d1	-0.036825005
236	0x3cf5eedd	0.030021125
237	0x3c941206	0.018075
238	0x3e0e9b39	0.139264
239	0x3d6665c2	0.056249388
240	0xbd758afe	-0.059947006
241	0xbd2493de	-0.04018008
242	0xbc3e52c1	-0.01161641
243	0xbd986ed1	-0.074430116
244	0xbdbf96cc	-0.09354934
245	0x3bac467a	0.005257425
246	0x3d294e07	0.04133418
247	0x3cace5f6	0.021105748
248	0x3c8d2a4a	0.017232079
249	0x3c995079	0.01871513
250	0x3d6f6cb8	0.05845329
251	0x3d44e3ed	0.04806893
252	0x3bd67ad7	0.0065454054
253	0xbd8f1706	-0.06986813
254	0xbd0c9062	-0.03431738
255	0x3bea7254	0.0071547423

fc1.bias f4 [128]
0	0x3c86b21d	0.016442353
1	0xbd232a8b	-0.039835494
2	0xbc50a88a	-0.012735495
3	0x3b08f6aa	0.0020898976
4	0xbc84391b	-0.016140511
5	0x3c60d5f8	0.013722889
6	0xbcdb532b	-0.026773056
7	0xbc6bf59d	-0.0144018205
8	0xbd175df8	-0.03695485
9	0xbdad62d4	-0.084661156
10	0xbcc0cbbf	-0.023534654
11	0x3d49891f	0.049203034
12	0xbcb16b16	-0.021657508
13	0x3cba326f	0.022729127
14	0xbd9dd5da	-0.077068046
15	0xbda452a4	-0.08023575
16	0xbca65fdf	-0.020309387
17	0x3ccce041	0.025009276
18	0x3d270fd2	0.04078657
19	0xbc8d4a65	-0.017247388
20	0xbb344797	-0.0027508491
21	0xbd1dfb48	-0.03856972
22	0xbca35419	-0.019937562
23	0x3d77dbf2	0.06051249
24	0xbd292065	-0.04129066
25	0x3c5e6331	0.013573454
26	0x3cfa8560	0.030581176
27	0x3a1166d5	0.0005546634
28	0x3dda600b	0.1066285
29	0xbbda6923	-0.0066653653
30	0xbc4822fa	-0.01221537
31	0x3cfa0f44	0.030524857
32	0x3dc3ccc2	0.09560539
33	0x3d6ee527	0.058324005
34	0x3d3c77ac	0.046012565
35	0x3d92a5c2	0.07160522
36	0x3d81f15f	0.06344866
37	0x3cf00ccc	0.029302977
38	0x3cff4b09	0.03116371
39	0x3c8486a9	0.016177492
40	0x3cd97ea7	0.02654965
41	0x3cb9546a	0.02262326
42	0xbc5b5d72	-0.013388978
43	0x3c665735	0.014058878
44	0xba2d0b22	-0.0006601085
45	0x3c4c249c	0.0124599
46	0xbdc238f5	-0.0948352
47	0x3c64e17a	0.013969773
48	0xbd836bef	-0.06417071
49	0xbc9ecd12	-0.019384895
50	0xbcb5be1a	-0.022185374
51	0x3c4a16dc	0.012334552
52	0xbd05f55d	-0.0327047
53	0xbde3088a	-0.11085613
54	0x3c8556a2	0.016276661
55	0x3c292c26	0.010325467
56	0x3dbf4d40	0.09340906
57	0x3d7b780a	0.061393775
58	0xbc9640c2	-0.018341426
59	0x3d1e09c9	0.03858355
60	0xbbe0ca16	-0.006860028
61	0x3d12b20a	0.035814323
62	0xbd1c13f0	-0.03810495
63	0xbc891163	-0.016731923
64	0xbd9aed91	-0.075648434
65	0xbc96257b	-0.018328419
66	0x3c72b2ff	0.014813184
67	0x3d019a75	0.031641442
68	0xbc17c349	-0.009262868
69	0x3d790d13	0.060803484
70	0x3d5f4c32	0.054516025
71	0x3cc2c8ee	0.023777451
72	0xbd9f3d8b	-0.0777541
73	0x3c1d4690	0.009599343
74	0x3c6b530d	0.014363063
75	0xbaeec3e1	-0.0018216335
76	0xbe08dc5a	-0.13365307
77	0xbcc1069d	-0.023562724
78	0x3d3335c1	0.043752436
79	0x392e86be	0.00016644128
80	0xbe10cf95	-0.14141686
81	0x3d4a32bf	0.0493648
82	0x3cc515ff	0.02405834
83	0x3cf32e94	0.029685296
84	0xbd18c076	-0.03729292
85	0xbbab96a2	-0.0052364627
86	0xbb06fa4f	-0.0020595973
87	0xbd277fd4	-0.04089339
88	0xbc2a757d	-0.010403988
89	0xbd0c6e1c	-0.034284696
90	0xbd737060	-0.05943334
91	0xbc142ba6	-0.00904361
92	0x3d07d621	0.033163194
93	0xbcf5e549	-0.030016558
94	0xbd55126f	-0.052019533
95	0xbc152c7f	-0.009104847
96	0x3c53b5d5	0.01292177
97	0x3c5de8e3	0.013544294
98	0xbd83539f	-0.06412434
99	0xbd14d684	-0.03633739
100	0x3c407279	0.011746042
101	0x3cb7f360	0.022454917
102	0x3cf0ea54	0.029408611
103	0xbc882503	-0.016619211
104	0xbbd0dbe6	-0.00637387
105	0xbd396323	-0.04526056
106	0x3cec3c56	0.028837364
107	0x3d0a9968	0.033837706
108	0x3c0762b2	0.008263277
109	0x3c68d521	0.01421097
110	0x3c153e07	0.009109027
111	0x3caf45b0	0.021395534
112	0x3ccb5dbf	0.024824975
113	0xbcf5a5df	-0.02998632
114	0xbde399b9	-0.11113305
115	0xbcae140f	-0.021249799
116	0x3cc80458	0.024416134
117	0xbb9788b0	-0.0046244487
118	0xbc538b00	-0.012911558
119	0x3d9190a0	0.07107663
120	0xbcc14374	-0.023591734
121	0xbbcaeceb	-0.0061927936
122	0xb959ef7a	-0.00020783945
123	0x3dba34b8	0.090920866
124	0x3ce87af1	0.028378936
125	0x3d210d98	0.039319605
126	0x3cd7a46b	0.026323518
127	0xbda129eb	-0.07869323

fc2.weight f4 [128, 128]
0	0x3b844626	0.0040366827
1	0xbdb54434	-0.08850899
2	0xbcf338ca	-0.029690165
3	0xbd0791cd	-0.03309803
4	0xbbd73615	-0.0065677264
5	0x3d4c99f8	0.049951524
6	0x3d41e618	0.047338575
7	0xbd7ee6ba	-0.062231757
8	0x3de8600d	0.11346445
9	0xbd92ca6c	-0.07167515
10	0xbcaafee7	-0.0208735
11	0xbcd5f89d	-0.026119525
12	0x3c80f965	0.01574392
13	0x3d8ce663	0.0687988
14	0x3d605945	0.054772634
15	0xbd85118a	-0.06497486
16	0x3d991d8b	0.07476338
17	0xbc8cb0ae	-0.017174091
18	0x3d7be75b	0.061499935
19	0x3d55087c	0.052010044
20	0x3da2c457	0.07947605
21	0xbca146e8	-0.019687131
22	0xbd928e19	-0.07156009
23	0x3d78a4ed	0.06070416
24	0x3db5abe7	0.088706784
25	0x3d8b1e75	0.067929186
26	0xbe33fae8	-0.17576182
27	0xbd40befa	-0.04705713
28	0x3c429583	0.011876467
29	0xbcecfeb6	-0.02893005
30	0x3b657c49	0.0035016707
31	0xbdcfd422	-0.10147883
32	0xbd4c4e8c	-0.049879596
33	0x3d1e4ed0	0.03864938
34	0xbacc2cce	-0.0015577318
35	0x3cb16895	0.021656314
36	0x3d84aedd	0.06478665
37	0x3da27419	0.079323
38	0xbe20c2d2	-0.15699318
39	0x3d66f942	0.056390055
40	0x3d86c233	0.06580009
41	0x3d97f065	0.074188985
42	0xbe0a9952	-0.1353505
43	0x3d0ec615	0.034856874
44	0xbbfce5c0	-0.007717818
45	0x3d9fdc16	0.0780565
46	0xbdf18125	-0.117922105
47	0xbdf37864	-0.11888197
48	0xbcde66b9	-0.027148591
49	0x3d378278	0.04480216
50	0x3d8e4145	0.06946043
51	0x3dc34b09	0.09535796
52	0xbd1d660f	-0.03842741
53	0xbd365d95	-0.04452284
54	0x3dbae8cd	0.091264345
55	0xbd276179	-0.04086444
56	0xbc8a7356	-0.0169007
57	0x3e03426b	0.12818305
58	0x3dad5ebb	0.08465334
59	0xbd2bdd62	-0.041959174
60	0xbde892ed	-0.11356149
61	0xbd175f60	-0.03695619
62	0xbd781401	-0.060565952
63	0x3d51a4da	0.051182605
64	0x3d0155f4	0.031576112
65	0x3d62441e	0.055240743
66	0xbb06f1f2	-0.0020590988
67	0x3d6bed1e	0.05759918
68	0x3d39aaae	0.04532879
69	0x3d8edda3	0.069758676
70	0xbd80ebd2	-0.06294979
71	0xbca3ff1a	-0.020019103
72	0x3b08ca8d	0.0020872683
73	0x3c37f86a	0.01122866
74	0xbd47ca35	-0.048776824
75	0xbd1ca7f7	-0.03824612
76	0x3b98f06f	0.004667334
77	0x3d248d2e	0.040173702
78	0x3d9390ed	0.07205377
79	0x3d44536c	0.04793112
80	0x3d8153d2	0.063148156
81	0x3df8c11c	0.12146208
82	0x3de59aa3	0.11211135
83	0x3c700460	0.014649481
84	0x3cfbfbdb	0.030759742
85	0x3e0e8f1b	0.13921778
86	0xbd5bfd48	-0.053708345
87	0x3be18d38	0.0068832897
88	0x3c64c42c	0.013962787
89	0x3d54acf3	0.05192275
90	0x3daf24a4	0.085519105
91	0xbdad2ac3	-0.08455422
92	0x3d43b37a	0.047778584
93	0xbcbd66da	-0.023120333
94	0x3c831267	0.015999986
95	0x3beca337	0.007221605
96	0xbdf68122	-0.12036349
97	0x3cdef7a0	0.027217686
98	0x3d17def9	0.037077878
99	0x3db3ee34	0.08785668
100	0x3d963447	0.0733419
101	0xbd67a178	-0.056550473
102	0xbc9e3fe5	-0.019317577
103	0x3d2033a8	0.039111763
104	0x3dc9d677	0.09855359
105	0x3d238406	0.03992083
106	0x3d01c557	0.03168234
107	0x3e064edb	0.13116018
108	0x3d325fa8	0.043548256
109	0x3dee4c53	0.116356514
110	0x393a9661	0.00017794363
111	0xbd6fa953	-0.05851109
112	0x3d6f4e2f	0.05842417
113	0x3da512f3	0.08060255
114	0xbe5f9c69	-0.2183701
115	0xbd1a2fd1	-0.037643258
116	0x3cbe760f	0.023249654
117	0xbd9ba331	-0.07599486
118	0x3d97a649	0.07404763
119	0x3d24396e	0.04009383
120	0xbd333831	-0.04375476
121	0xbcf70f1e	-0.030158576
122	0x3d9ec7a4	0.07752922
123	0x3dc517de	0.09623693
124	0xbd9599f1	-0.073047526
125	0x3d957a93	0.0729877
126	0xbcbee6bb	-0.02330338
127	0x3cfacfb1	0.030616613
128	0xb019fa73	-5.6016985e-10
129	0x322a5402	9.9144035e-09
130	0xb465c349	-2.1398331e-07
131	0xb4488605	-1.8675208e-07
132	0x3204f915	7.740046e-09
133	0xb294ecf5	-1.7337223e-08
134	0x34546e0f	1.9784078e-07
135	0x2f4f2cf0	1.8842505e-10
136	0xb5378f4c	-6.8381337e-07
137	0x3232bfde	1.0404589e-08
138	0xb255fbaf	-1.2455458e-08
139	0xb2ed947b	-2.7657952e-08
140	0xb303b6f9	-3.0667227e-08
141	0xb3d9e1ae	-1.0145901e-07
142	0x328e5129	1.6567883e-08
143	0x3346a270	4.6248203e-08
144	0x2f89b65e	2.5049735e-10
145	0x329670fa	1.7513674e-08
146	0x31c7019e	5.791846e-09
147	0x31039e4c	1.915299e-09
148	0xb24a3bda	-1.1771556e-08
149	0xb2063c5c	-7.813551e-09
150	0x2e4e89ee	4.6961483e-11
151	0x33658191	5.3436057e-08
152	0x314541c7	2.8704663e-09
153	0xb28be92f	-1.628777e-08
154	0x3302a32b	3.0416384e-08
155	0x322fe4c7	1.0238359e-08
156	0x350fb72a	5.353819e-07
157	0xb5d6adf0	-1.5994865e-06
158	0xb2e67a46	-2.6831128e-08
159	0xb1bf49ba	-5.5672134e-09
160	0xb2bca813	-2.1962512e-08
161	0xb39a062c	-7.1723065e-08
162	0xb1fd21b7	-7.367102e-09
163	0xb1845765	-3.8516412e-09
164	0x32f157c9	2.8096013e-08
165	0xb291319a	-1.6902778e-08
166	0xb36fb73d	-5.5813178e-08
167	0xb1e51e97	-6.668255e-09
168	0x329b8093	1.8102844e-08
169	0xb3e7d726	-1.0795911e-07
170	0x30eddf72	1.7307527e-09
171	0xb1fcae3a	-7.3539725e-09
172	0x32d0f03f	2.4323638e-08
173	0xb2f38a1a	-2.8351725e-08
174	0xb3ece532	-1.1031297e-07
175	0xb2a39d74	-1.9047299e-08
176	0xb2379557	-1.0685958e-08
177	0xb316531c	-3.5000184e-08
178	0xb31b8c87	-3.621656e-08
179	0xb340afea	-4.4863476e-08
180	0x3388857a	6.357273e-08
181	0x3397fcf4	7.077497e-08
182	0xb3126bc8	-3.40913e-08
183	0xb3a941f2	-7.881671e-08
184	0xb0b5203b	-1.3178644e-09
185	0xb5966413	-1.1204996e-06
186	0x317b9d5a	3.6614751e-09
187	0x3528450b	6.268535e-07
188	0x33ca3b27	9.417118e-08
189	0x3611cacd	2.172473e-06
190	0xb29aea8e	-1.8034623e-08
191	0xb4d7d10e	-4.0198978e-07
192	0x3264a030	1.3307769e-08
193	0xb60c068c	-2.0865436e-06
194	0xb349a1e0	-4.6946184e-08
195	0x35920fe6	1.0882475e-06
196	0x3247693c	1.1607252e-08
197	0xb4a93808	-3.151947e-07
198	0xb280878d	-1.4962803e-08
199	0xb485b2e5	-2.4903343e-07
200	0x34cad36f	3.777927e-07
201	0xb3a2e7b2	-7.585858e-08
202	0xb1a51a44	-4.805118e-09
203	0xb370da9d	-5.6078182e-08
204	0xb16a1344	-3.4062433e-09
205	0x3403f9f2	1.2291255e-07
206	0xb493fe46	-2.7565892e-07
207	0xb1db7ab8	-6.3876904e-09
208	0xb18b3089	-4.0509502e-09
209	0x3662c707	3.3792473e-06
210	0x35c70916	1.48293e-06
211	0xb1c4d6a0	-5.728751e-09
212	0xb17f4c8b	-3.7150893e-09
213	0x350c1a4c	5.219233e-07
214	0xb1ad6111	-5.045998e-09
215	0xafb2c8f4	-3.2520797e-10
216	0x317269fb	3.5275878e-09
217	0x2eb82e48	8.3755725e-11
218	0xb339773a	-4.3182105e-08
219	0x3282719c	1.5185655e-08
220	0xb2ea354f	-2.7265427e-08
221	0xb1a328eb	-4.748576e-09
222	0x313b5dcd	2.72654e-09
223	0xb3e53c3f	-1.0674602e-07
224	0x3358ba6d	5.0460972e-08
225	0xb2e4d536	-2.663965e-08
226	0xb38ddb42	-6.605707e-08
227	0x300fa532	5.2257854e-10
228	0x34c96330	3.7511336e-07
229	0x333ba660	4.3690648e-08
230	0xb3a22dbd	-7.5520326e-08
231	0xb3eb1ffc	-1.0948858e-07
232	0xb20ccb5d	-8.195312e-09
233	0xb38e5f63	-6.629741e-08
234	0xb50b0c39	-5.179932e-07
235	0x340e22d3	1.323745e-07
236	0x33192680	3.5658104e-08
237	0x361c135e	2.3257085e-06
238	0x349669f7	2.8016777e-07
239	0xaf306abf	-1.604503e-10
240	0x31866764	3.9116674e-09
241	0x33b2b05a	8.320849e-08
242	0xb330fad3	-4.1206317e-08
243	0xb3cd96c6	-9.573482e-08
244	0xb38c516b	-6.534068e-08
245	0xb10cb54c	-2.0475737e-09
246	0xafd81fd4	-3.9312786e-10
247	0xb10732f8	-1.9674058e-09
248	0x31a4b04f	4.793072e-09
249	0xb3006379	-2.9892792e-08
250	0xb3f29038	-1.12952364e-07
251	0x3537dc37	6.849327e-07
252	0x33817301	6.02795e-08
253	0x352c3a06	6.415943e-07
254	0xb543eb7e	-7.2985847e-07
255	0xb3646bfb	-5.3183594e-08

fc2.bias f4 [128]
0	0xbd39f4e8	-0.045399576
1	0xb985f4f6	-0.00025550247
2	0xbd65fbb1	-0.056148235
3	0x3d201d88	0.039090663
4	0xbb827b27	-0.003981966
5	0xb4575297	-2.0053481e-07
6	0xbd92400d	-0.07141123
7	0xbba636c4	-0.0050724465
8	0xbd326be4	-0.043559924
9	0x3b5a0836	0.0033269054
10	0xbdc76445	-0.09735922
11	0x3c308a37	0.0107751405
12	0x3d1dfa28	0.038568646
13	0x3d8833bd	0.06650493
14	0xbc6b54ce	-0.014363481
15	0x3e07fbaa	0.13279596
16	0xbd211756	-0.039328896
17	0xbd1b0cac	-0.03785388
18	0x3d4f8493	0.050663542
19	0xbbdc6a3d	-0.006726532
20	0x3d84808f	0.06469833
21	0x3d943dc7	0.072383456
22	0xbb77a7dc	-0.003778926
23	0x3d2eb837	0.04265615
24	0xbc74b9ae	-0.014936848
25	0x3d3e4de2	0.046460994
26	0x3d4e0d86	0.050305866
27	0x3d31ad5b	0.043378215
28	0xbbf0873b	-0.0073403395
29	0xbc04dd30	-0.008109376
30	0x3b0ee36a	0.002180303
31	0xbd5ed865	-0.05440559
32	0xbd74c235	-0.059755523
33	0xbb6a9260	-0.0035792813
34	0x3c461cb3	0.012091803
35	0x3d06e4e6	0.03293314
36	0xbd4206aa	-0.047369637
37	0xbbd54ab6	-0.0065091504
38	0xbd4af4b4	-0.049549773
39	0xbd6549bd	-0.055978525
40	0x3d1ef681	0.038809303
41	0xbd521be9	-0.05129615
42	0xbda3335b	-0.0796878
43	0xbd3be870	-0.045875967
44	0xbd246012	-0.040130682
45	0xbd8f646d	-0.070015766
46	0x3cd9ee54	0.026602902
47	0x3c6a0540	0.014283478
48	0x3db641b9	0.08899254
49	0xbd583c9e	-0.052792184
50	0xbd14d347	-0.036334302
51	0x3d4f63f1	0.05063242
52	0xbd5a0b53	-0.053233456
53	0x3bbd93a6	0.0057854233
54	0x3d50f81a	0.051017858
55	0x3d2deb32	0.042460628
56	0x3dcab465	0.09897689
57	0x3d8d2fd2	0.068938866
58	0x3bd5006f	0.006500296
59	0xbdac4d5d	-0.084131934
60	0x3d8f70d9	0.07003946
61	0xbd1adca0	-0.03780806
62	0x3d4c9122	0.049943097
63	0xbda69a67	-0.08134919
64	0x3b0bb38a	0.002131673
65	0xbc716623	-0.014733824
66	0x3cf36169	0.029709535
67	0xbc40a025	-0.011756931
68	0xbd8d8945	-0.06910948
69	0xbd705670	-0.058676183
70	0x3d7192aa	0.05897776
71	0x3c89ed68	0.016836837
72	0x3e114c1d	0.14189191
73	0xbcd00c98	-0.02539663
74	0xbca995b0	-0.02070126
75	0x3dbea0a8	0.093079865
76	0x3cd5ce41	0.026099326
77	0x3ce28a3f	0.027653811
78	0x3d4c2856	0.049843155
79	0xbdb9465f	-0.09046625
80	0xbdb35b2f	-0.08757626
81	0xbdcdf9ba	-0.10057397
82	0x3cbdc415	0.023164788
83	0xbdb84053	-0.08996644
84	0xbda0cc38	-0.07851452
85	0xbd4bc9bf	-0.049752947
86	0xbd6bdd9a	-0.057584383
87	0xbd713bdd	-0.05889498
88	0x3cd064de	0.025438722
89	0x3cd22469	0.025652127
90	0xbd9b21f8	-0.075748384
91	0x3c5d4c0a	0.013506899
92	0xbc1f81ed	-0.009735567
93	0xbd8132a5	-0.06308488
94	0xbd1f06c3	-0.038824808
95	0x3bd5eb26	0.006528276
96	0xbd4bef77	-0.04978892
97	0x3cb7004a	0.022339005
98	0xbd11e775	-0.035621125
99	0x3d8579a5	0.065173425
100	0xbd58cf8b	-0.052932303
101	0xbd47d365	-0.048785586
102	0x3d636a6c	0.055521414
103	0xbdba426b	-0.090946995
104	0xbccabfbb	-0.024749627
105	0x3db21d67	0.08697014
106	0x3dad6182	0.08465864
107	0x3d28bc65	0.041195292
108	0xbd8f04f9	-0.0698337
109	0xba764a4e	-0.00093952275
110	0xbe0b22e0	-0.13587523
111	0x3d0b2375	0.03396936
112	0xbd842837	-0.06452983
113	0xbd131406	-0.035907768
114	0x3d417128	0.047227055
115	0x3cbc0807	0.022953046
116	0xbdb6aebf	-0.08920049
117	0xbb460c5d	-0.0030219771
118	0x3d17daea	0.037074007
119	0xbcb49ebc	-0.022048347
120	0x3be1e28a	0.0068934606
121	0xbcf23548	-0.029566422
122	0x3d9cc31c	0.07654402
123	0x3e0d0571	0.13771607
124	0xbca875eb	-0.02056404
125	0x3d725e58	0.059172004
126	0xbcba2ed7	-0.022727413
127	0xbbb6db82	-0.0055803666

fc3.weight f4 [1, 128]
0	0x3d21b000	0.039474487
1	0xb32b4c45	-3.9883407e-08
2	0x3ec1664c	0.3777336
3	0xbe5b3eca	-0.21410671
4	0xbd843392	-0.06455149
5	0x331adaa5	3.6054775e-08
6	0x3cc0d9db	0.023541382
7	0x3e4087cd	0.18801804
8	0xbdbe10e3	-0.09280565
9	0xbe7aa731	-0.24477841
10	0x3ebe3278	0.3714788
11	0x3e933d5f	0.2875776
12	0x3e6f260e	0.2335436
13	0xbdba84ee	-0.091073856
14	0x3cec216c	0.02882453
15	0x3e3c7a9b	0.18406145
16	0xbed0086f	-0.40631434
17	0xbdb4aea4	-0.088223726
18	0xbe80dbc7	-0.25167677
19	0xbdb776e8	-0.089582264
20	0x3d81fd5d	0.06347153
21	0xbc8ea0ca	-0.017410655
22	0xbd1fb1cd	-0.038987923
23	0x3d755a19	0.059900377
24	0xbd2b7bd1	-0.041866127
25	0xbe3a9bb8	-0.18223464
26	0x3d3062fd	0.043063153
27	0xbea320c4	-0.31860936
28	0x3e445a49	0.19175066
29	0xbe20f7ad	-0.15719481
30	0xbd8d4c06	-0.06899266
31	0xbd89639e	-0.067084536
32	0x3e5ea0c5	0.21741016
33	0xbd47319c	-0.048631296
34	0xbbd98673	-0.006638342
35	0xbd3359b5	-0.043786723
36	0xbd004906	-0.03131964
37	0xba701ee6	-0.00091598777
38	0xbd869cd3	-0.065728806
39	0xbd0c9e9c	-0.03433095
40	0x3e1eaca2	0.15495542
41	0x3df81985	0.121142425
42	0xbd565da6	-0.052335404
43	0xbebd9dbb	-0.370344
44	0x3d96ed93	0.073695324
45	0xbd30ccf8	-0.043164223
46	0xbd89ca1b	-0.06728002
47	0x3d1ebc86	0.03875401
48	0x3e38c6cd	0.18044586
49	0x3e72131e	0.23640105
50	0x3cf6bc6c	0.030119143
51	0x3d8b7cee	0.06810938
52	0xbdbf1a8e	-0.09331237
53	0x3db40c47	0.08791404
54	0xbd931ee6	-0.07183628
55	0xbdbcbb5d	-0.09215424
56	0xbe7c9abd	-0.24668403
57	0x3aa248de	0.0012381335
58	0x3d6ed91c	0.05831252
59	0x3d614dae	0.05500572
60	0x3d582d06	0.052777313
61	0xbe1ab863	-0.151094
62	0x3d154ee6	0.036452197
63	0xbec03e6a	-0.37547618
64	0x3d1b0cbb	0.037853938
65	0xbea5e75c	-0.32403076
66	0x3ca8d461	0.020609083
67	0xbc70d950	-0.014700249
68	0x3ebfab8e	0.37435573
69	0xbd9c649b	-0.076363765
70	0xbe7bc028	-0.2458502
71	0xbcc6441f	-0.024202405
72	0x3e28692e	0.16446373
73	0xbdd7cc5c	-0.10537025
74	0xbd5de0cf	-0.054169472
75	0xbea45cee	-0.3210215
76	0x3e3862a7	0.18006383
77	0x3dfcf7db	0.12351962
78	0x3ce2b680	0.027674913
79	0x3df07f40	0.11743021
80	0xbbf79dc8	-0.007556651
81	0x3d454435	0.04816075
82	0x3e7bf18d	0.24603863
83	0x3e1067db	0.14102118
84	0x3dadeae1	0.08492065
85	0x3e657df8	0.22411335
86	0xbe261794	-0.16219932
87	0xbda8469d	-0.082165934
88	0xbea01c68	-0.31271672
89	0xbe31eff9	-0.17376699
90	0xbc85d47c	-0.016336672
91	0x3d8603d5	0.065437
92	0xbe67c131	-0.2263229
93	0x3be75b9e	0.007060482
94	0x3e6a660f	0.22890495
95	0xbd62501e	-0.055252187
96	0xbd0d8e8c	-0.03455977
97	0xbead4376	-0.3384053
98	0x3c67e6c5	0.014154141
99	0xbd9abe3c	-0.075558156
100	0xbda3ad1c	-0.07992002
101	0xbdc833c8	-0.097755015
102	0xbd625a73	-0.05526204
103	0xbdf497d3	-0.11943021
104	0x3e9e3184	0.30897152
105	0x3d7f9c17	0.06240472
106	0x3da7b379	0.081885286
107	0x3c782e2e	0.015147729
108	0x3e96d3e7	0.29458544
109	0x3d80b935	0.062853254
110	0x3f18c911	0.59681803
111	0xbe03365d	-0.12813707
112	0x3cf4c6d2	0.029879961
113	0xbeacccf3	-0.33750114
114	0x3b89bfe2	0.0042037824
115	0xbe6b6f3e	-0.22991654
116	0xbda416c9	-0.080121584
117	0x3e793f95	0.24340661
118	0xbce67dc0	-0.028136134
119	0xbcaf7894	-0.0214198
120	0xbd5f1224	-0.05446066
121	0x3da0a067	0.07843094
122	0x3d56b569	0.0524191
123	0x3e50737e	0.20356557
124	0x3e48ba0a	0.19602218
125	0x3d8ad7b9	0.06779427
126	0xbe1c6b90	-0.15275407
127	0x3e4f4942	0.2024279
