src/nnue/hidden64best1.057e-2.pth (torch, 217681 bytes, 5 tensors)

fc1.weight f4 [64, 771]
4.906175e-38 -0.07613207 0.11850104 -0.0372797 -0.0065674814 0.30243835 4.9081443e-38 -0.10534189
-0.029752888 0.4066789 0.14400057 -0.13896582 4.9076645e-38 -0.050660677 0.113969915 0.061943833
-0.06468316 -0.031124689 4.904912e-38 -0.026395498 -0.15321234 0.34408554 -0.24136041 -0.11141479
4.9095484e-38 -0.12116929 -0.048395507 -0.042232078 0.15026648 -0.22692041 4.9048703e-38 -0.17210384
-0.25304547 0.31098768 0.02960314 -0.029610213 -4.9063204e-38 -0.23419006 -0.0063571264 0.013522173
-0.09100635 -0.3914078 -4.905438e-38 -0.18782176 -0.21254602 0.340619 0.16031821 0.08711357
-4.9100904e-38 0.00767011 -0.26655754 0.10037815 -0.31929523 -0.55677027 -4.904697e-38 -0.07605226
-0.29050034 0.28659022 0.01463294 -0.01906538 4.908353e-38 -0.29868487 -0.49768928 -0.016936218
-0.38784158 0.13396502 -4.9056006e-38 0.05119289 -0.15376657 0.13133043 0.040080696 0.1576097
4.9067346e-38 -0.10927772 -0.48754004 0.29321066 -0.2512223 0.32032734 -4.906092e-38 -0.101945624
0.18798412 0.12026408 0.28537497 -0.07726685 4.9071275e-38 -0.091034204 -0.119295366 0.20501292
-0.03946771 0.45534772 4.907184e-38 -0.2541142 0.11796384 0.15942356 0.033674378 0.025214626
0.039236087 0.05704732 0.039234746 0.13121042 -0.008459339 -0.28714684 -0.009138787 -0.029988436
-0.07877908 0.060659233 0.0041918466 0.033420112 -0.03263849 -0.28954652 -0.10368562 0.13853896
0.28895766 -0.064746566 -0.38850865 -0.044553682 0.12048707 0.14934191 -0.021886578 -0.0278173
0.027488286 -0.053663533 -0.015359806 0.08734405 0.08331636 -0.4113585 -0.058611844 -0.15463097
-0.16653934 -0.004537746 -0.4233204 -0.2137219 0.018799907 0.072507806 -0.021313667 0.008262282
-0.017793724 -0.36314693 -0.17138693 -0.014755285 -0.18209381 -0.024171846 -0.21918686 -0.15858142
0.03061779 -0.11813621 0.2533958 0.20215425 0.41751876 -0.12359365 -0.3249963 0.18488279
-0.06093735 -0.055260196 -0.54146093 0.062176403 0.2223843 0.123207316 -0.11737458 0.32649544
-0.16186263 -0.43517253 0.123130806 0.21066113 0.26152533 0.024138132 0.27623644 0.44645235
0.051392034 -0.20192637 -0.3755455 -0.0774641 -0.017712895 0.18717006 0.43068573 -0.23011798
0.29662913 -0.08449404 0.367107 0.03878584 -0.086221114 -0.50748223 0.037414692 0.20587377
-0.053191666 0.21385236 0.115094826 0.18445565 0.041709077 0.05408213 0.31481522 0.25134462
0.016334472 0.11401607 -0.027179489 0.08596038 0.27835855 0.3129639 0.0015272419 -0.09141066
-0.20154552 0.02170223 -0.17666823 -0.016845087 0.006813156 0.04249366 -0.00027146764 0.014184569
0.2064825 -0.2529598 -0.025463266 -0.008954282 -0.16275541 -0.29662257 -0.2424255 0.3198294
0.031143285 0.105181955 0.07018248 0.17675284 0.15786979 -0.2612992 0.12511559 -0.1535918
-0.31474125 -0.29337212 -0.057424184 0.19928494 0.02353475 -0.14794864 0.046121288 0.30789277
0.11378345 -0.4308442 0.007304834 -0.12590824 -0.08091061 -0.30987152 -0.30637544 -0.2995489
0.07258199 0.22676702 -0.025626132 0.26505798 0.14929903 -0.41796347 -0.10662713 0.11561736
-0.109446734 0.04135041 -0.460265 -0.020819386 -0.14769061 -0.18036716 0.052614518 0.14542148
00000000: 0d8f 8501 21eb 9bbd acb0 f23d 99b2 18bd
00000010: 0734 d7bb 33d9 9a3e c69c 8501 7dbd d7bd
00000020: 54bc f3bc 3738 d03e e374 133e 0e4d 0ebe
00000030: 6e99 8501 9281 4fbd 0f69 e93d d1b8 7d3d
00000040: 9b78 84bd 34f9 febc 3f86 8501 5f3b d8bc
00000050: b2e3 1cbe fb2b b03e 2f27 77be 702d e4bd
00000060: 8fa6 8501 9b27 f8bd 5e3a 46bd 8bfb 2cbd
00000070: 75df 193e d35d 68be f585 8501 fd3b 30be
00000080: 2d8f 81be c739 9f3e 4982 f23c 1e91 f2bc
00000090: 1090 8581 85cf 6fbe 714f d0bb 1b8c 5d3c
000000a0: 8a61 babd 9a66 c8be ea89 8581 5954 40be
000000b0: aaa5 59be 9d65 ae3e 752a 243e 9968 b23d
000000c0: 56aa 8581 8c55 fb3b 3b7a 88be 0f93 cd3d
000000d0: aa7a a3be 7f88 0ebf c084 8581 4ac1 9bbd
000000e0: 76bc 94be f4bb 923e 00bf 6f3c 002f 9cbc
000000f0: 3a9e 8501 39ed 98be 21d1 febe d3bd 8abc
00000100: 2c93 c6be 202e 093e 0c8b 8581 a3af 513d
00000110: fc74 1dbe 7c7b 063e a82b 243d 7064 213e
00000120: f392 8501 ffcc dfbd d99e f9be b51f 963e
00000130: 36a0 80be f201 a43e 798e 8581 dec8 d0bd
00000140: e97e 403e 044d f63d ab1c 923e 153e 9ebd
00000150: b095 8501 2470 babd 2151 f4bd e8ee 513e
00000160: e5a8 21bd 5623 e93e 1596 8501 421b 82be
00000170: 0797 f13d ee3f 233e 25ee 093d e78e ce3c
00000180: 05b6 203d 73aa 693d 9db4 203d 065c 063e
00000190: 0a99 0abc e904 93be daba 15bc 4faa f5bc
000001a0: ed56 a1bd d175 783d c25b 893b 87e3 083d
000001b0: f0af 05bd 713f 94be 2059 d4bd 28dd 0d3e
000001c0: 42f2 933e d999 84bd 9bea c6be ec7d 36bd
000001d0: edc1 f63d 16ed 183e 7b4b b3bc 1be1 e3bc
000001e0: 1d2f e13c 4bce 5bbd b2a7 7bbc 70e1 b23d
000001f0: c5a1 aa3d 959d d2be f912 70bd 9557 1ebe
00000200: 4a89 2abe 5fb1 94bb 74bd d8be ead9 5abe
00000210: 4302 9a3c f97e 943d 009a aebc 865e 073c
00000220: 25c4 91bc 65ee b9be 0e80 2fbe 27c0 71bc
00000230: cd76 3abe 0904 c6bc 8572 60be 2b63 22be
00000240: 29d2 fa3c 66f1 f1bd 18bd 813e 8601 4f3e
00000250: 05c5 d53e ab1e fdbd ea65 a6be ea51 3d3e
00000260: 7199 79bd 8458 62bd 2f9d 0abf afac 7e3d
00000270: b6b8 633e 1e54 fc3d 1562 f0bd 692a a73e
00000280: 51bf 25be efce debe 012c fc3d 8db7 573e
00000290: a6e6 853e 55bd c53c dd6e 8d3e 6795 e43e
000002a0: 7480 523d c9c5 4ebe 8047 c0be 80a5 9ebd
000002b0: a21a 91bc 82a9 3f3e d782 dc3e 0ca4 6bbe
000002c0: c6df 973e 360b adbd 73f5 bb3e e7dd 1e3d
000002d0: b294 b0bd 5bea 01bf 2640 193d 93d0 523e
000002e0: 81df 59bd 1dfc 5a3e d6b6 eb3d f1e1 3c3e
000002f0: 23d7 2a3d 3985 5d3d 762f a13e 3eb0 803e
00000300: dfcf 853c 4281 e93d 85a7 debc ff0b b03d
00000310: 0385 8e3e ce3c a03e bc2d c83a 8335 bbbd
00000320: f361 4ebe e0c8 b13c 84e8 34be b5fe 89bc
00000330: e540 df3b d50d 2e3d c553 8eb9 6566 683c
00000340: 2670 533e f283 81be 5798 d0bc fbb4 12bc
00000350: 5ba9 26be eade 97be 643e 78be aec0 a33e
00000360: 3420 ff3c a369 d73d d5bb 8f3d b2fe 343e
00000370: 9ea8 213e 02c9 85be 4d1e 003e 2b47 1dbe
00000380: c425 a1be df34 96be 9f35 6bbd 5a11 4c3e
00000390: f3cb c03c d97f 17be ade9 3c3d 1fa4 9d3e
000003a0: 4c07 e93d 9c97 dcbe 645d ef3b 17ee 00be
000003b0: 76b4 a5bd 7ba7 9ebe 3edd 9cbe 795e 99be
000003c0: dea5 943d 9d35 683e e5ed d1bc aeb5 873e
000003d0: d8e1 183e 4fff d5be 535f dabd cbc8 ec3d
000003e0: 9c25 e0bd 0c5f 293d dba7 ebbe 6b8d aabc
000003f0: 353c 17be 2bb2 38be 5282 573d 5ee9 143e

fc1.bias f4 [64]
-0.20312922 -0.48580182 0.4137666 -0.27410406 -0.27359104 -0.28791347 -0.16822791 -0.282683
-0.037540462 0.53825057 0.14357767 0.06647658 -0.367791 -0.54230946 -0.22771735 -0.3207354
0.08841902 -0.10630368 -0.049953345 -0.025391933 -0.34099498 0.043504987 -0.24789433 0.061993744
0.0002873887 -0.23014972 0.11814821 0.08076698 -0.38879982 0.05069816 -0.08641934 0.09521741
0.1559867 0.13184182 -0.025089875 -0.5260065 0.1673387 -0.17547539 -0.068560444 -0.05515071
-0.08674357 0.57951236 -0.18346019 -0.10963872 -0.4444621 0.09814796 0.67868555 -0.69976646
-0.09614746 0.04753248 0.5875541 0.3778594 -0.26066405 -0.035119165 -0.5692074 -0.028723711
-0.17902029 -0.72234935 -2.9360568e-05 -0.311051 -0.623056 0.6674583 0.07599438 -0.058138512
00000000: 1b01 50be 04bb f8be 37d9 d33e 5e57 8cbe
00000010: 2014 8cbe 6569 93be f043 2cbe d4bb 90be
00000020: 07c4 19bd caca 093f 0606 133e e024 883d
00000030: 1a4f bcbe cbd4 0abf bd2e 69be 6e37 a4be
00000040: 0815 b53d beb5 d9bd e19b 4cbd be02 d0bc
00000050: e596 aebe 4932 323d 03d8 7dbe 27ed 7d3d
00000060: a9ac 9639 5eac 6bbe b0f7 f13d 2969 a53d
00000070: c510 c7be e0a8 4f3d 9ffc b0bd 5801 c33d
00000080: faba 1f3e 8b01 073e 4889 cdbc 5da8 06bf
00000090: d65a 2b3e d2af 33be 6b69 8cbd b6e5 61bd
000000a0: 9da6 b1bd ec5a 143f fddc 3bbe 448a e0bd
000000b0: 8990 e3be cc01 c93d 56be 2d3f e523 33bf
000000c0: f6e8 c4bd 6bb1 423d f269 163f ca76 c13e
000000d0: c275 85be 1dd9 0fbd 93b7 11bf fd4d ebbc
000000e0: 1851 37be e3eb 38bf 574b f6b7 1442 9fbe
000000f0: 9980 1fbf 8cde 2a3f f1a2 9b3d a622 6ebd

fc2.weight f4 [64, 64]
-0.25214583 -0.15734397 0.36013573 -0.1411645 0.3833627 0.097307615 -0.0064185006 -0.015132318
-0.0544877 0.0034019602 -0.057854112 0.052527662 -0.078791745 0.33069614 0.2384306 -0.008709889
0.22249405 0.29754916 -0.13439353 -0.0036873636 0.021061566 0.025374493 -0.30573222 -0.06238026
0.13920034 0.07555238 -0.09199299 -0.0032877866 0.082506955 0.098629646 0.083034374 0.24480866
-0.042726364 0.06933503 0.11228744 -0.16308722 -0.17746721 0.055403285 0.057754565 -0.07531962
0.035052687 -0.05772681 -0.07502779 -0.03010227 0.059795067 0.18835771 0.08667352 -0.020602386
0.017783396 -0.3562769 0.023522845 -0.1611345 -0.045612294 0.008854655 -0.0014655978 -0.2724286
-0.25653335 0.40001497 0.05344172 -0.25527087 0.13746075 -0.3922204 0.42708793 -0.1861243
-0.41986546 0.45716563 0.24459656 0.16022724 0.27700672 0.4307328 0.12405562 -0.10533654
-0.28894484 0.047881193 0.039496187 -0.07298093 0.16256762 -0.22937912 0.4428213 -0.09115819
-0.16660592 0.52682585 0.129333 -0.44193295 -0.37555236 0.5675112 -0.4856385 0.03481636
-0.23602521 0.22232331 0.045924634 0.15168703 0.08198862 -0.24136105 0.11315272 0.341139
0.13255449 0.39664245 0.388423 0.012115799 0.2121272 0.07444681 0.36601695 0.06710974
0.17330842 -0.14448495 0.25340116 0.10378265 0.40960732 -0.09561908 0.037157394 0.12144791
-0.0020956611 -0.39690015 0.123224646 0.068570815 -0.24897505 -0.04520141 0.5651115 -0.43832296
0.06538561 -0.08265682 -0.31110194 0.17741896 0.1229789 0.1993021 -0.026271356 0.18911861
-4.909116e-38 -4.907825e-38 -4.907547e-38 -5.513262e-38 4.908511e-38 -4.9100713e-38 -4.906964e-38 -4.9091745e-38
-4.9061074e-38 -5.475716e-38 4.906668e-38 -5.5383956e-38 -4.9098225e-38 -5.055959e-38 -4.909596e-38 -4.905495e-38
4.909181e-38 -4.9112193e-38 -4.910728e-38 -4.908919e-38 -4.906074e-38 -4.905668e-38 4.907325e-38 -4.909289e-38
-4.90589e-38 -4.907677e-38 3.103172e-38 -4.9029393e-38 -4.909318e-38 -5.221227e-38 -4.914616e-38 -4.906076e-38
4.9063114e-38 -4.907661e-38 -4.905428e-38 -4.1782124e-38 4.9055603e-38 -4.9060984e-38 5.074315e-38 -6.1091305e-38
-4.9076835e-38 -4.908681e-38 -4.9060065e-38 4.908365e-38 -4.951624e-38 -4.9080804e-38 -4.90563e-38 -4.908022e-38
-5.3179815e-38 -4.904648e-38 -4.90869e-38 -4.9049796e-38 -5.0518357e-38 4.9051567e-38 -4.909513e-38 4.9089413e-38
-4.906417e-38 -4.910419e-38 -5.5249415e-38 -5.493617e-38 -4.910661e-38 -4.907408e-38 4.9109816e-38 -5.285709e-38
0.20206256 0.09986649 0.11702237 0.017438784 -0.049518622 -0.05438311 0.019169893 -0.21143946
0.088967405 -0.11206477 -0.058928967 0.0058785393 -0.32796052 -0.21893828 0.045040447 0.3265886
-0.07886286 0.001133297 -0.016107043 0.058501955 0.19375587 0.086788274 0.05866737 0.24489982
-0.02512956 -0.066203155 -0.055337336 0.051971767 -0.002282466 0.17706326 -0.007430584 -0.2274789
-0.0126084965 -0.24705349 -0.040031575 0.039273016 0.29734623 0.10627038 0.14398454 -0.46615213
0.3094673 0.1106673 0.09518439 0.14914873 0.18752575 -0.17941311 0.16918908 -0.30746573
-0.060890973 0.17874517 0.18922578 0.13135523 -0.025129084 -0.0126178255 -0.023934372 0.2125411
-0.048865695 0.005840416 -0.18933494 0.060600348 0.14383325 0.31810626 0.3716971 0.01397711
00000000: 4219 81be c71e 21be b663 b83e 6d8d 10be
00000010: 1e48 c43e 3749 c73d 4952 d2bb 8bed 77bc
00000020: 7f2e 5fbd 6cf3 5e3b 6ff8 6cbd 3f27 573d
00000030: 915d a1bd 0151 a93e 2727 743e ecb3 0ebc
00000040: 7bd5 633e 5d58 983e 759e 09be b2a7 71bb
00000050: 4e89 ac3c 2bde cf3c ef88 9cbe 7282 7fbd
00000060: 898a 0e3e 35bb 9a3d d266 bcbd e877 57bb
00000070: 68f9 a83d 57fe c93d ed0d aa3d 1faf 7a3e
00000080: d701 2fbd 86ff 8d3d f5f6 e53d 5600 27be
00000090: f7b9 35be 8eee 623d 0d90 6c3d 2c41 9abd
000000a0: 6893 0f3d f372 6cbd 2ca8 99bd 0999 f6bc
000000b0: aceb 743d d8e0 403e e381 b13d 56c6 a8bc
000000c0: 7cae 913c ed69 b6be fbb2 c03c 7100 25be
000000d0: f5d3 3abd 1d13 113c 4d19 c0ba c37b 8bbe
000000e0: 5758 83be c3ce cc3e b4e5 5a3d ddb2 82be
000000f0: 83c2 0c3e 1dd1 c8be 45ab da3e 5e97 3ebe
00000100: 9bf8 d6be 9d11 ea3e 8577 7a3e 9c12 243e
00000110: d3d3 8d3e 0289 dc3e df10 fe3d afba d7bd
00000120: 94f0 93be 121f 443d c1c6 213d 0777 95bd
00000130: 2078 263e 5ce2 6abe 79b9 e23e 25b1 babd
00000140: be9a 2abe 0fde 063f df6f 043e 0945 e2be
00000150: 6648 c0be 6a48 113f 9ca5 f8be 999b 0e3d
00000160: 98b0 71be b9a8 633e 781b 3c3d d853 1b3e
00000170: a6e9 a73d 5a27 77be 9dbc e73d c5a9 ae3e
00000180: 5dbc 073e b814 cb3e 61df c63e 5881 463c
00000190: df37 593e 9277 983d 9366 bb3e d570 893d
000001a0: c377 313e ddf3 13be ccbd 813e ff8b d43d
000001b0: 0db8 d13e f0d3 c3bd 5a32 183d afb9 f83d
000001c0: 5c57 09bb 7f36 cbbe 345d fc3d db6e 8c3d
000001d0: 51f3 7ebe 1d25 39bd 26ab 103f de6b e0be
000001e0: e4e8 853d fb47 a9bd c148 9fbe 51ad 353e
000001f0: 5ddc fb3d da15 4c3e 0737 d7bc 4fa8 413e
00000200: 8ca3 8581 8c9a 8581 9c98 8581 d415 9681
00000210: 549f 8501 34aa 8581 8c94 8581 f4a3 8581
00000220: 948e 8581 2c10 9581 7c92 8501 fcc4 9681
00000230: 78a8 8581 e4a2 8981 e4a6 8581 508a 8581
00000240: 00a4 8501 34b2 8581 c8ae 8581 2ca2 8581
00000250: 588e 8581 848b 8581 1097 8501 c0a4 8581
00000260: 108d 8581 8499 8581 e8f3 2801 8078 8581
00000270: f4a4 8581 a422 8e81 e0c9 8581 5c8e 8581
00000280: 0090 8501 6899 8581 d889 8581 c87b 6381
00000290: c48a 8501 848e 8581 d022 8a01 6d4e a681
000002a0: 9099 8581 84a0 8581 e08d 8581 509e 8501
000002b0: c8cb 8681 549c 8581 408b 8581 ec9b 8581
000002c0: ecc4 9081 6884 8581 94a0 8581 b886 8581
000002d0: 2886 8981 f487 8501 50a6 8581 54a2 8501
000002e0: bc90 8581 a0ac 8581 3967 9681 ec8c 9581
000002f0: 50ae 8581 a497 8581 8cb0 8501 04e4 8f81
00000300: 7de9 4e3e cd86 cc3d 6da9 ef3d c8db 8e3c
00000310: 0ad4 4abd d3c0 5ebd 2e0a 9d3c 9683 58be
00000320: 8b34 b63d 3782 e5bd 805f 71bd c3a0 c03b
00000330: 71ea a7be 5b31 60be 557c 383d 9f36 a73e
00000340: da82 a1bd 238b 943a ebf2 83bc bf9f 6f3d
00000350: f067 463e 0dbe b13d 324d 703d 05c7 7a3e
00000360: 82dc cdbc 8595 87bd 67a9 62bd 59e0 543d
00000370: 6d95 15bb 1250 353e 427c f3bb 3bf0 68be
00000380: de93 4ebc 97fb 7cbe 26f8 23bd bedc 203d
00000390: c43d 983e 49a4 d93d af70 133e 7eab eebe
000003a0: 7f72 9e3e 8aa5 e23d 09f0 c23d 72ba 183e
000003b0: c006 403e 12b8 37be e73f 2d3e 266c 9dbe
000003c0: d068 79bd f908 373e 67c4 413e fc81 063e
000003d0: 82db cdbc ffba 4ebc 0412 c4bc 60a4 593e
000003e0: 6527 48bd f660 bf3b 05e1 41be 1238 783d
000003f0: 0649 133e d3de a23e 154f be3e 4000 653c

fc2.bias f4 [64]
0.13604374 -0.39938647 -4.910394e-38 -0.20273183 -0.2326926 -0.36007792 0.09278279 -0.12353208
-0.35227904 -4.9071006e-38 -0.25137466 -0.20581865 -0.66505224 0.24405053 0.24782614 -0.17986232
0.0066911643 -0.28870195 -0.1499429 0.0018101102 0.19813786 -0.23349774 0.054183576 0.059056625
-0.08910471 -4.9083903e-38 -0.16823131 0.28755596 -0.06663422 -0.4738992 -0.120063245 -0.20755094
-0.19639081 -0.08966872 -0.041999623 0.18907303 -0.057690375 0.28562486 0.31506836 -0.43287086
0.30501205 0.14797921 0.14782038 -0.41089416 -0.11678392 -0.12574647 0.29321057 -0.11210649
0.30022657 -0.42112485 -0.093888134 -0.05468181 -0.1986303 -0.27013928 -0.20288672 -4.905013e-38
-0.17590803 -0.13024814 -0.09890447 -0.07179248 0.026768781 -0.10471451 -4.9061774e-38 -0.4207299
00000000: 0d4f 0b3e 627c ccbe 74ac 8581 ef98 4fbe
00000010: f846 6ebe 225c b8be e704 be3d 63fe fcbd
00000020: eb5d b4be 8095 8581 2eb4 80be 20c2 52be
00000030: dd40 2abf 62e8 793e 23c6 7d3e d42d 38be
00000040: 8e41 db3b bed0 93be a28a 19be 3841 ed3a
00000050: a7e4 4a3e 081a 6fbe 99ef 5d3d 5ce5 713d
00000060: 887c b6bd 7d9e 8581 d444 2cbe 893a 933e
00000070: 8677 88bd eaa2 f2be b8e3 f5bd 3c88 54be
00000080: ac1a 49be 3ca4 b7bd cc07 2cbd 5c9c 413e
00000090: be4c 6cbd 6c3d 923e a450 a13e 40a1 ddbe
000000a0: 8a2a 9c3e dd87 173e 3a5e 173e b860 d2be
000000b0: 682c efbd afc3 00be b21f 963e 1698 e5bd
000000c0: 4cb7 993e ad9d d7be 6c48 c0bd 09fa 5fbd
000000d0: be65 4bbe b24f 8abe 89c1 4fbe f486 8581
000000e0: 3c21 34be c55f 05be 6d8e cabd f007 93bd
000000f0: 344a db3c 9074 d6bd 118f 8581 e969 d7be

fc3.weight f4 [1, 64]
0.05032243 0.40189877 4.906966e-38 -0.046624847 0.29874507 1.4094822 0.043309126 -0.7728244
0.42653614 -4.9064924e-38 0.7618575 -1.0417944 -1.8328269 0.060522135 0.05643013 -0.5933091
-0.4389147 1.260497 -0.5665761 -0.21275327 -0.115305826 -0.32432446 0.21367724 -0.4568921
0.6921664 4.910195e-38 0.4777661 0.05287195 0.09962551 -1.3845631 0.419201 0.34370393
0.57068115 0.4654801 -0.7913969 0.21472025 1.1832756 -0.27914262 0.050576486 0.45574275
-0.08034309 -0.1409889 -0.05926515 0.4168862 -0.5056746 -0.51483315 -0.14849149 0.11412222
0.10103046 0.28076 0.25306672 -0.19500044 0.963948 0.5553533 0.058300775 -4.911413e-38
-1.0971342 -0.29073158 0.24726586 -0.039048724 -0.05356292 -0.42311686 4.9077603e-38 -0.22622374
00000000: e41e 4e3d adc5 cd3e 9094 8501 b2f9 3ebd
00000010: 1df5 983e ea69 b43f e964 313d d2d7 45bf
00000020: f262 da3e 4391 8581 1809 433f 8559 85bf
00000030: 129a eabf 0fe6 773d 4823 673d 1be3 17bf
00000040: 6db9 e0be f757 a13f 220b 11bf fedb 59be
00000050: 7625 ecbd db0d a6be 35ce 5a3e c3ed e9be
00000060: d131 313f 11ab 8501 c29d f43e 4290 583d
00000070: 7608 cc3d 5d39 b1bf 83a1 d63e f6f9 af3e
00000080: 2918 123f 6853 ee3e fd98 4abf a0df 5b3e
00000090: 9375 973f c8eb 8ebe 4a29 4f3d 1d57 e93e
000000a0: eb8a a4bd 655f 10be 04c0 72bd 1c72 d53e
000000b0: e473 01bf 1bcc 03bf 270e 18be e9b8 e93d
000000c0: 0fe9 ce3d c6bf 8f3e f691 813e 32ae 47be
000000d0: 4cc5 763f a22b 0e3f cbcc 6e3d 8eb3 8581
000000e0: e56e 8cbf c5da 94be 4333 7d3e 8ef1 1fbd
000000f0: cb64 5bbd c6a2 d8be 199a 8501 32a7 67be
