src/nnue/hidden128best1.0076e-2.pth (torch, 464989 bytes, 5 tensors)

fc1.weight f4 [128, 771]
-4.9095164e-38 0.18879712 -0.059064943 0.17262241 0.3858082 -0.014093443 4.907494e-38 0.22076221
0.09909857 -0.16910836 -0.44353697 -0.28965417 4.9051074e-38 -0.15902807 0.018043926 0.19475512
-0.010908466 0.109753184 4.907084e-38 0.052048016 -0.16342573 -0.20025995 -0.40731296 -0.17792946
4.9109357e-38 0.20836057 0.00391603 0.18557175 0.19866766 0.10230854 4.906009e-38 0.014233033
-0.21419632 -0.17224672 -0.3616593 -0.2002205 -4.9086274e-38 0.0628741 0.09852695 0.22362183
0.19732344 0.026404599 4.904546e-38 0.07735127 -0.07180039 -0.22806604 -0.5398153 0.13267937
4.9090204e-38 0.040431898 0.38737902 0.2441744 0.14461125 0.16941492 -4.911309e-38 0.032750145
-0.07236091 -0.16182746 -0.5209946 -0.18804547 -4.9076017e-38 0.17389882 0.17339978 0.17880194
0.28019392 0.06206628 4.910936e-38 0.007392039 0.061158217 -0.059009265 -0.5051015 -0.24733946
4.9099985e-38 0.14511465 0.29118857 0.07021665 0.43302897 0.055096727 4.906141e-38 0.0785916
-0.24962494 -0.16295525 -0.8282056 -0.062279597 4.910266e-38 0.082741216 -0.33092782 -0.013163971
0.04321055 0.13543715 -4.9090523e-38 -0.15343593 -0.09276433 -0.21409504 -0.36513627 -0.10956
-0.04555906 -0.43871143 0.036346506 0.20730643 0.17925175 -0.017604558 -0.17287178 0.005929733
-0.2562957 -0.15737586 -0.09918727 -0.018641798 0.0816363 0.03726033 0.21585645 0.2547685
0.24118122 -0.07037611 -0.20345382 -0.24111822 -0.011933966 0.023483666 -0.20275347 -0.22569484
-0.049907386 0.23121229 0.23650303 0.21633132 0.29310086 0.049726237 -0.035494696 -0.021108616
-0.06920985 -0.10454229 -0.47101456 -0.19014093 0.06303303 0.19155912 0.31708455 0.23347482
0.45400953 0.09407136 -0.4272256 -0.12559685 -0.22053953 -0.11567977 -0.28649172 -0.21148258
-0.084183395 -0.010250955 0.16286635 0.23348007 0.15982819 -0.022920113 -0.089090645 -0.25329557
0.08728105 -0.14497025 -0.40501708 0.086655356 -0.009513223 0.026445203 0.32823834 0.28757337
0.43586385 0.10939345 -0.08556126 0.014071169 -0.3717345 -0.09495951 -0.38809016 -0.013423484
0.038746253 0.08530325 0.1380882 0.22554103 0.4841366 0.057794325 -0.07939956 0.17056297
-0.11718787 -0.21097244 -0.4313919 -0.16138068 0.028592559 0.13543521 0.15749411 0.15354724
0.19556233 0.048202302 -0.2285542 -0.075703 -0.04586736 -0.049125593 -0.69872427 -0.21845454
0.011595398 0.027758822 0.06493598 0.27703446 0.36615056 -0.038737256 -0.35608453 -0.14583421
-0.34705207 -0.18781777 -0.28449285 -0.059675884 0.074602656 0.26857886 0.16249424 0.33810943
0.40250817 -0.07854757 -0.21533842 0.07244881 0.0108773485 -0.028506806 -0.22956023 -0.031574823
0.07562022 0.22334206 0.39155948 0.247004 0.7928185 0.02046275 -0.06259258 0.060763326
0.021719282 -0.016897183 -0.19795936 -0.016368201 0.07313876 0.22593427 0.09999748 0.42511624
0.23707072 0.10640076 -0.11421319 -0.12266199 0.14082302 -0.21447706 -0.35198107 0.02862386
-0.02005259 0.30894464 0.35080937 0.17123482 0.39828783 0.031728964 -0.09369578 0.031699922
-0.25935858 -0.12981914 -0.24352142 0.04110515 -0.03865129 0.2181341 0.19279613 0.23922029
00000000: 56a6 8581 0854 413e 15ee 71bd eec3 303e
00000010: a788 c53e 2fe8 66bc 3e98 8501 7d0f 623e
00000020: 31f4 ca3d be2a 2dbe 4717 e3be 8d4d 94be
00000030: 9c87 8501 41d8 22be dbd0 933c e36d 473e
00000040: 6cb9 32bc 47c6 e03d 6295 8501 4d30 553d
00000050: 1359 27be f210 4dbe 538b d0be 2433 36be
00000060: 3ab0 8501 795c 553e 0a52 803b 8506 3e3e
00000070: 896f 4b3e 2487 d13d e58d 8501 ab31 693c
00000080: 4856 5bbe 7261 30be 682b b9be 9a06 4dbe
00000090: 24a0 8581 23c4 803d 7fc8 c93d 1ffd 643e
000000a0: 280f 4a3e 754e d83c b283 8501 586a 9e3d
000000b0: 150c 93bd 258a 69be 5631 0abf 1add 073e
000000c0: e1a2 8501 eb9b 253d 8b56 c63e db08 7a3e
000000d0: f914 143e 1b7b 2d3e d4b2 8581 0425 063d
000000e0: f531 94bd 19b6 25be e75f 05bf fe8e 40be
000000f0: fe98 8581 8812 323e b68f 313e db17 373e
00000100: 9475 8f3e 3639 7e3d 3bb0 8501 eb38 f23b
00000110: 0a81 7a3d b3b3 71bd 554e 01bf 8e46 7dbe
00000120: b2a9 8501 ef98 143e ab16 953e bfcd 8f3d
00000130: f9b5 dd3e 1bad 613d d08e 8501 a2f4 a03d
00000140: ae9d 7fbe bedd 26be 4805 54bf e418 7fbd
00000150: 8fab 8501 3a74 a93d 5f6f a9be b2ad 57bc
00000160: 8cfd 303d 09b0 0a3e 1aa3 8581 4f1e 1dbe
00000170: 3afb bdbd bb3b 5bbe 24f3 babe fe60 e0bd
00000180: 239c 3abd c99e e0be 13e0 143d 2348 543e
00000190: c58d 373e 6f37 90bc 4d05 31be 354e c23b
000001a0: 3139 83be 2327 21be b222 cbbd afb6 98bc
000001b0: ef30 a73d 4a9e 183d 7909 5d3e 0471 823e
000001c0: 36f8 763e 5a21 90bd 3356 50be b2e7 76be
000001d0: ae86 43bc d160 c03c 9b9e 4fbe 8c1c 67be
000001e0: b06b 4cbd eac2 6c3e da2d 723e f585 5d3e
000001f0: 5111 963e bdad 4b3d e362 11bd faeb acbc
00000200: e5bd 8dbd 451a d6bd d228 f1be 4eb4 42be
00000210: 7617 813d 1328 443e e858 a23e 0614 6f3e
00000220: f073 e83e 7ca8 c03d 50bd dabe 769c 00be
00000230: 1dd5 61be 84e9 ecbd 0baf 92be e48e 58be
00000240: 5868 acbd 9ff3 27bc 70c6 263e 6615 6f3e
00000250: 00aa 233e f6c2 bbbc 2875 b6bd f5af 81be
00000260: 68c0 b23d 1573 14be 665e cfbe 5d78 b13d
00000270: 59dd 1bbc 9ca3 d83c db0e a83e d13c 933e
00000280: 8c29 df3e ac09 e03d be3a afbd c38a 663c
00000290: fc53 bebe 227a c2bd c1b3 c6be 2cee 5bbc
000002a0: 64b4 1e3d 78b3 ae3d fe66 0d3e 3af4 663e
000002b0: c1e0 f73e beb9 6c3d 3d9c a2bd 0fa8 2e3e
000002c0: 3200 f0bd 2909 58be 66df dcbe fa40 25be
000002d0: f13a ea3c 87af 0a3e 2346 213e 7d3b 1d3e
000002e0: 7e41 483e c76f 453d 1d0a 6abe 2d0a 9bbd
000002f0: 6adf 3bbd eb37 49bd 98df 32bf 8cb2 5fbe
00000300: a0fa 3d3c 7866 e33c 28fd 843d 76d7 8d3e
00000310: 1678 bb3e f5aa 1ebd b650 b6be 9055 15be
00000320: cfb0 b1be 4d53 40be 0ca9 91be b36e 74bd
00000330: 47c9 983d 2b83 893e e464 263e ae1c ad3e
00000340: 8d15 ce3e 8cdd a0bd ad81 5cbe 0b60 943d
00000350: e836 323c 1b87 e9bc d611 6bbe 9a54 01bd
00000360: c6de 9a3d c8b3 643e 7c7a c83e 9eee 7c3e
00000370: 27f6 4a3f 7fa1 a73c 8a30 80bd f7e2 783d
00000380: a3ec b13c f66b 8abc dcb5 4abe 9b16 86bc
00000390: c6c9 953d 505b 673e 7bcb cc3d d6a8 d93e
000003a0: abc2 723e a4e8 d93d 9be8 e9bd 3636 fbbd
000003b0: e933 103e e09f 5bbe dd36 b4be 967c ea3c
000003c0: 5445 a4bc fe2d 9e3e 499d b33e 2e58 2f3e
000003d0: 62ec cb3e 3bf6 013d 93e3 bfbd c7d7 013d
000003e0: a6ca 84be 4fef 04be ae5d 79be e05d 283d
000003f0: d150 1ebd 8c5e 5f3e 596c 453e 2af6 743e

fc1.bias f4 [128]
0.10980839 -0.12672964 -0.13664874 -0.17013678 0.3120833 -0.14170809 0.046710882 0.021947667
-0.123920664 -0.441546 -0.17379479 -0.16286065 -0.21746075 -0.6763856 -0.92482245 -0.0064914194
0.023752052 0.5963806 -0.23573492 -0.29421347 -0.1821543 -0.13770886 0.036195356 -0.1700981
-0.051469587 0.07289327 -0.07266629 -0.06370662 -0.12675005 0.31261078 0.003527175 0.1743403
-0.13269868 0.92248774 -0.14953613 -0.26639745 -0.301428 -0.17345579 -0.17646042 -0.15348282
-0.16492845 -0.1329909 -0.05635541 -0.13503462 -0.011958698 0.027120901 -0.108971275 -0.28818765
-0.47238308 -0.2588392 -0.23801902 0.19707422 0.06142168 -0.0401023 0.14821239 -0.17657809
-0.2019217 -0.05372091 -0.12974872 -0.07736622 -0.47639465 -0.07461802 -0.11497621 -0.21976963
-0.06595654 -0.10621435 -0.5808607 -0.28510663 -0.00055895833 0.29754195 -0.03761358 -0.26110137
-0.3286649 -0.0449341 -0.21234973 -0.13996932 -0.25375766 0.43773222 -0.085205264 -0.09477535
-0.033769403 -0.06781505 -0.28743026 0.012612223 -0.10020644 0.14138173 0.18129009 0.06651828
-0.085006334 -0.02357409 -0.0014277622 0.05531204 -0.2784367 -0.21313807 -0.036768712 -0.025956452
-0.23232917 -0.28042072 -0.099023625 0.1801713 0.010557905 -0.19528474 -0.16028851 -0.0933692
0.14424908 0.23664576 0.116043046 0.14456446 -0.37117982 -0.16440107 0.09410362 -0.07155657
-0.16866347 -0.1435644 -0.13380417 0.18089862 -0.0320563 0.19477133 -0.23481813 -0.26747352
0.04053173 0.2629004 -0.0022900214 0.026001588 0.59945065 -0.14285767 -0.17397021 -0.28313392
00000000: 39e3 e03d 6ac5 01be a6ed 0bbe 5638 2ebe
00000010: 62c9 9f3e ed1b 11be e953 3f3d 98cb b33c
00000020: 1eca fdbd 5112 e2be 43f7 31be f1c4 26be
00000030: 08ae 5ebe 9b27 2dbf 2ac1 6cbf f9b5 d4bb
00000040: aa93 c23c 66ac 183f 7f64 71be 26a3 96be
00000050: a886 3abe 8d03 0dbe 9541 143d 322e 2ebe
00000060: c6d1 52bd 1149 953d 10d2 94bd 9e78 82bd
00000070: c4ca 01be 850e a03e 2d28 673b 4386 323e
00000080: 2ae2 07be 2828 6c3f 0020 19be 3f65 88be
00000090: c554 9abe 659e 31be 0ab2 34be 9a2a 1dbe
000000a0: 01e3 28be c42e 08be eed4 66bd 8446 0abe
000000b0: 6aee 43bc a72c de3c 552c dfbd 558d 93be
000000c0: 32dc f1be 9286 84be 42bb 73be d3cd 493e
000000d0: 4d95 7b3d 4f42 24bd fdc4 173e e3d0 34be
000000e0: 90c4 4ebe 750a 5cbd d9dc 04be 2e72 9ebd
000000f0: 00ea f3be 55d1 98bd a678 ebbd 4a0b 61be
00000100: 3914 87bd e986 d9bd 49b3 14bf 7ff9 91be
00000110: 0f87 12ba 6b57 983e b210 1abd 14af 85be
00000120: c446 a8be d20c 38bd 3572 59be 1e54 0fbe
00000130: 86ec 81be 701e e03e 1980 aebd 9419 c2bd
00000140: c951 0abd 9ee2 8abd 0f2a 93be 7fa3 4e3c
00000150: 0939 cdbd 5fc6 103e 1ca4 393e bc3a 883d
00000160: cd17 aebd 731e c1bc c023 bbba e18e 623d
00000170: 418f 8ebe de40 5abe ca9a 16bd a0a2 d4bc
00000180: b3e7 6dbe 4e93 8fbe e6cc cabd d37e 383e
00000190: 10fb 2c3c b9f8 47be ac22 24be 5a38 bfbd
000001a0: 08b6 133e 4453 723e faa7 ed3d b508 143e
000001b0: 480b bebe c158 28be 66b9 c03d 408c 92bd
000001c0: 1eb6 2cbe 8c02 13be f603 09be 7d3d 393e
000001d0: 784d 03bd 2372 473e 2a74 70be 4af2 88be
000001e0: 9904 263d e29a 863e 2f14 16bb 4801 d53c
000001f0: 9975 193f 4849 12be 3f25 32be eef6 90be

fc2.weight f4 [128, 128]
-4.9131677e-38 -4.908191e-38 4.925797e-38 -4.9112894e-38 -4.91821e-38 -4.909411e-38 -4.911367e-38 -4.911789e-38
-4.9097014e-38 4.908448e-38 -4.904982e-38 -4.9307186e-38 -4.9077844e-38 -4.906243e-38 -4.906734e-38 -4.905587e-38
-5.322257e-38 -4.9227907e-38 -4.9077945e-38 -4.906392e-38 -4.9096297e-38 -4.9053764e-38 -5.7493707e-38 4.9072396e-38
-6.0123535e-38 -4.911068e-38 -4.9790825e-38 -4.9097485e-38 -4.9083786e-38 -4.9069033e-38 -4.909455e-38 4.9072463e-38
5.302731e-38 -5.3658975e-38 -4.9106453e-38 -5.0538356e-38 -4.9100534e-38 -4.9111206e-38 -4.95357e-38 -4.905363e-38
-4.9151833e-38 5.203203e-38 -4.910255e-38 -4.9112103e-38 -4.9072463e-38 -4.906469e-38 -4.9148896e-38 -4.9101655e-38
-4.907363e-38 -4.9096207e-38 -4.905309e-38 -5.5096074e-38 4.910632e-38 4.908217e-38 -5.28231e-38 -4.9106543e-38
-4.948794e-38 -5.630581e-38 -5.555494e-38 -5.8211844e-38 -4.906513e-38 4.910087e-38 4.910844e-38 -4.9074616e-38
-4.908152e-38 4.9058316e-38 -5.0758483e-38 -4.9113925e-38 -4.9084795e-38 -4.905668e-38 4.905038e-38 -4.9052285e-38
-4.904807e-38 -4.910457e-38 -4.908733e-38 -4.92701e-38 -4.914264e-38 -4.6115454e-38 4.9047487e-38 -5.238e-38
-4.909096e-38 -5.811548e-38 -4.911199e-38 -4.9097104e-38 -4.9081454e-38 -4.0306456e-38 4.9106173e-38 4.90989e-38
-5.106269e-38 -4.909172e-38 -4.904742e-38 -4.9088786e-38 -5.10287e-38 -6.07977e-38 4.910724e-38 -4.908271e-38
-5.4738485e-38 4.910098e-38 -4.908807e-38 -4.9096476e-38 -4.907003e-38 4.9093337e-38 -5.0553714e-38 -4.9086723e-38
4.910919e-38 -4.928324e-38 -5.8515735e-38 -4.907982e-38 -4.9069436e-38 5.498408e-38 -4.906473e-38 -5.2202045e-38
-4.9103225e-38 -4.9105467e-38 -4.906327e-38 -4.974431e-38 -4.9114054e-38 -4.911094e-38 5.803196e-38 -4.9067665e-38
4.909913e-38 -4.9085624e-38 -4.908087e-38 4.9104615e-38 -4.9686636e-38 4.909632e-38 -4.910977e-38 -5.4493e-38
-0.35979104 0.33612257 0.015778938 0.13087954 -0.6095482 -0.13224839 -0.3201311 -0.2864505
-0.0883361 0.108667344 0.28994983 -0.28067455 -0.23747632 -0.31577158 0.26545036 -0.20216016
0.13920976 -0.41505635 -0.19275641 0.2092108 0.15768225 -0.041914776 -0.41570368 0.13963522
-0.16204867 0.16392602 -0.15117139 -0.14058341 -0.35059807 -0.047998648 0.20337416 -0.055164307
0.043855447 -0.3487432 -0.07600179 -0.5749494 -0.13434485 0.0581374 -0.1536967 0.2916976
0.14152549 0.26385823 -0.19286004 -0.36750394 0.1847641 0.04176516 0.28733242 -0.28667676
-0.115968585 0.10691552 0.020319365 -0.0076511893 0.20619187 -0.0043422277 -0.32364973 0.2360346
0.24750215 0.23065957 -0.06799458 -0.38842002 0.0054718866 0.18726988 -0.08404904 0.060285907
-0.08753428 -0.31666118 -0.0021431928 0.019131478 -0.07321489 0.09751572 -0.2915862 -0.025213199
-0.079847425 -0.3661936 -0.3129948 -0.09154497 -0.14226173 -0.18970014 -0.34591475 -0.0070347893
0.20886369 -0.28619215 -0.021990126 -0.15754868 0.046130493 -0.06418447 0.16542256 -0.18667178
0.10438486 -0.19861534 -0.08623505 0.21598348 -0.028727135 -0.081928365 -0.13405764 0.04052498
-0.3263011 0.090573505 -0.353788 -0.6334723 -0.033268 0.09099516 0.03942339 0.3432428
-0.40556708 0.049080543 -0.28604788 0.18710156 -0.23840961 -0.044474978 -0.20665345 -0.10882874
0.088613756 0.03768652 0.03593109 -0.029146157 0.022986054 -0.043095782 -0.115865625 0.02938145
-0.3417737 -0.044589784 -0.16299742 0.08756414 0.33969814 -0.20728184 0.36341992 0.0129977865
00000000: c8bf 8581 199d 8581 cc17 8601 b1b2 8581
00000010: ece2 8581 9aa5 8581 3cb3 8581 2cb6 8581
00000020: a0a7 8581 e49e 8501 bc86 8581 183a 8681
00000030: 449a 8581 868f 8581 f292 8581 f48a 8581
00000040: b8e2 9081 d802 8681 569a 8581 9090 8581
00000050: 20a7 8581 7c89 8581 4483 9c81 7896 8501
00000060: fdab a381 26b1 8581 248b 8781 f4a7 8581
00000070: 689e 8581 2094 8581 e8a5 8581 8496 8501
00000080: a45a 9001 d912 9281 34ae 8581 1894 8981
00000090: 14aa 8581 84b1 8581 58d9 8681 6489 8581
000000a0: d4cd 8581 08a5 8d01 7cab 8581 24b2 8581
000000b0: 8496 8581 1991 8581 c8cb 8581 dcaa 8581
000000c0: 5497 8581 10a7 8581 0489 8581 5cfc 9581
000000d0: 1cae 8501 489d 8501 54cc 8f81 44ae 8581
000000e0: 10b8 8681 6c47 9981 243c 9781 bc77 9e81
000000f0: 6891 8581 50aa 8501 96af 8501 0498 8581
00000100: d49c 8581 a88c 8501 802d 8a81 69b3 8581
00000110: 1c9f 8581 848b 8581 2087 8501 7488 8581
00000120: 8485 8581 e4ac 8581 e0a0 8581 4020 8681
00000130: 6cc7 8581 9013 7b81 1c85 8501 8897 8e81
00000140: 68a3 8581 9434 9e81 10b2 8581 b0a7 8581
00000150: c89c 8581 0073 5b81 02ae 8501 f0a8 8501
00000160: 8001 8b81 f0a3 8581 1085 8581 e4a1 8581
00000170: d0e9 8a81 d081 a581 c0ae 8501 a89d 8581
00000180: 2803 9581 64aa 8501 64a1 8581 40a7 8581
00000190: d294 8581 10a5 8501 cc9e 8981 74a0 8581
000001a0: 1cb0 8501 6829 8681 844b 9f81 a49b 8581
000001b0: 6894 8581 50ae 9501 2091 8581 841b 8e81
000001c0: f4ab 8581 84ad 8581 1c90 8581 b96a 8781
000001d0: 80b3 8581 54b1 8581 60fa 9d01 2c93 8581
000001e0: 1aa9 8501 b09f 8581 609c 8581 ecac 8501
000001f0: 8842 8781 24a7 8501 84b0 8581 1458 9481
00000200: 8836 b8be 4218 ac3e d542 813c 4905 063e
00000210: 5a0b 1cbf 1f6c 07be 39e8 a3be a4a9 92be
00000220: 8fe9 b4bd fc8c de3d 4e74 943e 93b4 8fbe
00000230: fe2c 73be d0ac a1be 1ce9 873e 1303 4fbe
00000240: 018d 0e3e 4482 d4be f061 45be 5b3b 563e
00000250: 7577 213e d4ae 2bbd 1dd7 d4be 89fc 0e3e
00000260: 16f0 25be 39dc 273e accc 1abe 19f5 0fbe
00000270: 9781 b3be 3b9a 44bd 5141 503e f8f3 61bd
00000280: c5a1 333d 788e b2be d4a6 9bbd e22f 13bf
00000290: b291 09be 7b21 6e3d ab62 1dbe 6359 953e
000002a0: 0fec 103e 6d18 873e 1a7d 45be 7a29 bcbe
000002b0: cd32 3d3e f211 2b3d 3c1d 933e 4cc7 92be
000002c0: f080 edbd 86f6 da3d cc74 a63c d4b6 fabb
000002d0: f623 533e 3f49 8ebb 6bb5 a5be 0eb3 713e
000002e0: 3471 7d3e 0632 6c3e be40 8bbd fdde c6be
000002f0: 834d b33b adc3 3f3e e721 acbd 5bee 763d
00000300: 2c45 b3bd 6a21 a2be cf74 0cbb 9eb9 9c3c
00000310: b0f1 95bd 52b6 c73d c94a 95be e98b cebc
00000320: 0c87 a3bd ba7d bbbe db40 a0be ee7b bbbd
00000330: 0fad 11be c140 42be bd1b b1be 1784 e6bb
00000340: 5de0 553e c787 92be a324 b4bc 7154 21be
00000350: 54f3 3c3d 2673 83bd 8864 293e e326 3fbe
00000360: bbc7 d53d d261 4bbe 009c b0bd c62a 5d3e
00000370: 2b55 ebbc 0fca a7bd 6846 09be 85fd 253d
00000380: f010 a7be 9a7e b93d b323 b5be 3e2b 22bf
00000390: 0744 08bd ac5b ba3d 6c7a 213d 85bd af3e
000003a0: 7da6 cfbe ae08 493d de74 92be 8d97 3f3e
000003b0: a621 74be 652b 36bd f69c 53be 9ae1 debd
000003c0: 217b b53d 2e5d 1a3d 7b2c 133d ecc3 eebc
000003d0: 404d bc3c 3485 30bd f54a edbd 5eb1 f03c
000003e0: f6fc aebe c7a3 36bd cce8 26be d454 b33d
000003f0: eaec ad3e b141 54be 2d12 ba3e abf4 543c

fc2.bias f4 [128]
-4.9078853e-38 -0.426423 -0.0030049426 -0.25013345 -0.3920787 -0.20305878 -0.10540938 -0.37472776
-4.910446e-38 -0.21649879 -0.3765413 -0.098636985 -0.027518947 0.16129152 -0.63123876 -0.18101096
-0.26162472 -0.54841435 -0.109412916 -0.4010588 -0.047084354 -0.5116563 -0.31156102 -0.48985094
-0.02435198 -0.2755278 -0.24707043 -0.25104544 -0.2788002 -0.25989702 -4.9047593e-38 -0.11755687
0.023635628 -0.18807529 0.10987564 0.20371039 0.2406305 -0.45409507 -0.20341763 -0.2786073
-0.30307126 -0.31401244 -0.050057724 -0.29153323 0.31916577 -0.4437236 -0.16648456 -0.3028479
-0.1706269 -0.32451773 -0.13837044 -0.2215344 -0.09426741 -0.15829335 0.060668755 0.024914674
-0.084960684 -0.10259172 -0.2761564 -0.2155663 -0.08783 0.09775577 -0.57459474 -0.30495274
-0.16664498 -0.16427712 0.014909187 0.047848623 0.10727216 -0.14610665 -0.03224136 -0.26093686
-0.14152093 -0.35514915 -0.08772399 -0.6479376 -0.20599358 -0.2532101 -0.14721856 -0.21264915
-0.14656495 0.22170107 -0.45117587 -0.26531056 -0.101147875 -0.31042323 -5.3749314e-38 -0.15289265
0.06838712 -0.067643985 -0.25039998 0.12069828 -0.22202948 -0.11335194 -0.047656175 -0.23946851
-5.85404e-38 0.14715287 -5.0668217e-38 -0.034111153 -0.27229565 -0.4643024 4.9109345e-38 -0.2069836
-0.24187602 -0.26005667 -0.4226355 -0.382494 -0.06635315 -4.906421e-38 -0.035984986 -0.2724919
0.13577348 0.05050644 0.2743392 0.028558206 0.09066424 -0.15540868 0.08306964 -0.014372702
-0.13171165 -0.16955978 -0.24089903 -0.038990762 0.01239212 -0.30507356 -0.11564352 -0.2058431
00000000: f89a 8581 1e54 dabe 92ee 44bb 7e11 80be
00000010: 8abe c8be a4ee 4fbe dfe0 d7bd 51dc bfbe
00000020: d0ac 8581 dcb1 5dbe 05ca c0be 3002 cabd
00000030: 6a6f e1bc 9b29 253e dd98 21bf f05a 39be
00000040: adf3 85be e264 0cbf e113 e0bd 9457 cdbe
00000050: 86db 40bd e8fb 02bf ed84 9fbe becd fabe
00000060: ce7d c7bc fb11 8dbe 0800 7dbe 0789 80be
00000070: e6be 8ebe 3911 85be 2f85 8581 a8c1 f0bd
00000080: 819f c13c cf96 40be 7b06 e13d 7599 503e
00000090: d767 763e 267f e8be b64c 50be 9ea5 8ebe
000000a0: 282c 9bbe 3dc6 a0be 5409 4dbd d843 95be
000000b0: b269 a33e bd2f e3be ee7a 2abe e10e 9bbe
000000c0: d1b8 2ebe 3027 a6be fbb0 0dbe ead9 62be
000000d0: 460f c1bd a717 22be cd7f 783d dc19 cc3c
000000e0: deff adbd 9c1b d2bd 5f64 8dbe 6abd 5cbe
000000f0: 37e0 b3bd 2d34 c83d a418 13bf c422 9cbe
00000100: fba4 2abe 4338 28be aa45 743c ebfc 433d
00000110: 82b1 db3d fb9c 15be 840f 04bd 8499 85be
00000120: ddea 10be 1cd6 b5be a3a8 b3bd 3ddf 25bf
00000130: fbef 52be c1a4 81be 76c0 16be b3c0 59be
00000140: 1f15 16be 9b05 633e 8600 e7be c9d6 87be
00000150: 9e26 cfbd cbef 9ebe ce51 9281 e48f 1cbe
00000160: 8c0e 8c3d ee88 8abd 6d34 80be a930 f73d
00000170: b25b 63be 1025 e8bd 1f33 43bd 3c37 75be
00000180: b45c 9f81 3eaf 163e 98ee 8981 23b8 0bbd
00000190: 566a 8bbe 0bb9 edbe 38b0 8501 82f3 53be
000001a0: 59ae 77be 2626 85be ae63 d8be 41d6 c3be
000001b0: 29e4 87bd c490 8581 fe64 13bd 0f84 8bbe
000001c0: 3408 0b3e d7df 4e3d 3076 8c3e e6f2 e93c
000001d0: 2cae b93d 7423 1fbe 6a20 aa3d 7b7b 6bbc
000001e0: 6bdf 06be 14a1 2dbe 3cae 76be c7b4 1fbd
000001f0: 5208 4b3c 9a32 9cbe 83d6 ecbd 89c8 52be

fc3.weight f4 [1, 128]
4.904659e-38 1.1799344 0.11270361 0.26030678 0.35378563 -0.17115314 0.4256118 -0.49935275
4.9078326e-38 0.2798372 1.379974 -0.88123995 0.07787071 0.09940785 -1.5553012 0.044408582
0.10754863 0.95143354 -0.44352937 0.2884975 -0.12954 1.8401648 0.5984563 0.7939945
-0.16330977 -0.56293595 0.34743366 0.14957273 -0.44725737 0.34330574 -4.9100876e-38 -0.056946807
0.20580237 0.09332089 0.067445226 -0.067153946 0.054420512 1.8168163 -0.332584 0.22798906
-0.38480812 -0.39428133 -0.19558924 0.4168842 0.048098866 0.78324217 0.16399527 -0.35036954
0.3424457 -0.51708114 -0.5674233 -0.37870497 -0.14395103 -0.68114424 0.095409274 -0.15885222
0.122575864 0.1293438 0.31314173 -0.64800537 -0.12109691 -0.06399748 -0.92415947 0.33243713
-0.37972996 -0.30650002 0.21161976 0.23428398 0.080044426 -0.26822108 -0.18842961 0.18156238
-0.095364146 0.60221577 -0.26882735 -1.0882443 -0.36957723 0.25151613 -0.38996196 0.0873011
-0.29134884 -0.048982356 -0.97236603 0.10410433 0.06912359 0.21528746 4.9082127e-38 -0.19065136
0.14206068 0.2115809 -0.4329931 -0.07814782 0.12141701 -0.20971288 0.31644094 -0.47075328
-4.9092894e-38 -0.027282847 4.904753e-38 -0.1798712 0.38576987 0.50639296 -4.907532e-38 0.84853613
0.39316058 0.42629182 0.2844913 0.7260224 0.02277329 4.9108964e-38 -0.14532466 -1.017106
-0.12920238 -0.059047185 -0.049561728 0.2134319 -0.03209488 0.13762563 0.07648199 0.5189187
0.44799852 0.27745584 -0.062065683 -0.08285931 0.061400205 -0.32150152 0.17319527 -0.85232115
00000000: 7c84 8501 1708 973f 26d1 e63d ee46 853e
00000010: 6423 b53e c542 2fbe cae9 d93e 2aab ffbe
00000020: 9a9a 8501 d246 8f3e fda2 b03f f198 61bf
00000030: ae7a 9f3d 5896 cb3d 1c14 c7bf c6e5 353d
00000040: 7542 dc3d 2691 733f 4816 e3be f2b5 933e
00000050: 22a6 04be 858a eb3f 6f34 193f 3943 4b3f
00000060: ad3a 27be 921c 10bf d3e2 b13e 9829 193e
00000070: ebfe e4be c5c5 af3e 51aa 8581 0e41 69bd
00000080: dbbd 523e 061f bf3d b920 8a3d 0288 89bd
00000090: 0be8 5e3d 708d e83f 7348 aabe f775 693e
000000a0: 9205 c5be 3edf c9be 8c48 48be d971 d53e
000000b0: 5103 453d 8f82 483f 60ee 273e a363 b3be
000000c0: 0b55 af3e 6e5f 04bf a742 11bf 9ee5 c1be
000000d0: e667 13be 785f 2ebf f065 c33d 28aa 22be
000000e0: 0e09 fb3d b372 043e 1d54 a03e aee3 25bf
000000f0: a801 f8bd 1c11 83bd b795 6cbf 3335 aa3e
00000100: f76b c2be 92ed 9cbe dab2 583e 24e8 6f3e
00000110: 55ee a33d 4654 89be b1f3 40be 7deb 393e
00000120: 474e c3bd d02a 1a3f bda3 89be 974b 8bbf
00000130: 3a39 bdbe b9c6 803e 18a9 c7be ebca b23d
00000140: ad2b 95be b9a1 48bd fbec 78bf a734 d53d
00000150: ab90 8d3d 5174 5c3e 409d 8501 1c3a 43be
00000160: 5b78 113e aaa8 583e 46b1 ddbe f70b a0bd
00000170: 7ba9 f83d f9be 56be 8c04 a23e 9306 f1be
00000180: c1a4 8581 4780 dfbc 2485 8501 2830 38be
00000190: a183 c53e f8a2 013f 8298 8581 aa39 593f
000001a0: 584c c93e ec42 da3e d8a8 913e 9bdc 393f
000001b0: 0d8f ba3c f4af 8501 fdcf 14be 8830 82bf
000001c0: a14d 04be 76db 71bd 3d01 4bbd e48d 5a3e
000001d0: ec75 03bd bced 0c3e 97a2 9c3d dbd7 043f
000001e0: 1060 e53e b10e 8e3e 9638 7ebd 24b2 a9bd
000001f0: c87e 7b3d d99b a4be 1a5a 313e b831 5abf
