src/nnue/newbest.pth (torch, 794952 bytes, 5 tensors)

hidden_bias f4 [256]
-0.009101858 0.014995796 -0.013748879 0.06592859 -0.003054099 -0.015748626 0.067090325 -0.0044852286
0.084989324 -0.022006294 0.0058760615 -0.0009930399 0.009527141 -0.0045439503 -0.010675183 0.010111015
-0.0033601816 0.04017229 -0.0062890244 -0.008114529 0.006163365 0.00839772 0.015878584 0.011156404
0.009141674 0.012739376 0.03382741 0.02711464 0.026490347 0.08679768 0.011065973 0.013376462
0.00212469 0.03619166 -0.023009904 0.014574 -0.014556041 -0.006880578 0.017793275 0.02134744
-0.011432775 -0.0040875436 -0.009109871 -0.007319278 -0.013255707 -0.0058003156 0.0075449278 0.007231276
0.022096304 -0.013564128 0.00166169 0.004674619 -0.00984045 -0.009941673 0.007774169 -0.009413573
-0.0037699393 -0.0070278835 0.03251171 -0.016227543 0.042918913 -0.022199983 0.008400195 -0.024076346
-0.028108433 0.0076797535 -0.011570966 -0.0061816676 0.0064151064 0.008009257 -0.0043294467 -0.0024763662
0.0051490883 0.012660122 -0.006605383 0.0075704837 -0.0060178516 -0.022235 -0.012216277 -0.0036564462
-0.008428947 0.014379437 -0.006198278 0.16154054 0.0015085706 0.009050959 -0.015343084 -0.022237947
-0.02376808 0.020042924 0.029410262 0.0046950206 0.0030221466 -0.0135756135 -0.014420696 0.003236207
0.0041309297 0.034750894 -0.003555882 0.058762703 0.002780614 -0.003349709 0.016285555 0.0076314774
0.06696048 0.011068791 -0.025174366 0.015787566 -0.017681118 0.020704035 0.028200129 -0.008625464
-0.000814861 -0.012255093 -0.013486963 0.018573811 0.010839493 -0.0044764625 0.009911548 0.006107144
-0.011322192 0.005677264 0.006098164 -0.0014749597 -0.019634197 -0.0077037313 0.016698835 -0.011433364
0.050636712 -0.004340936 0.04564581 0.011752678 0.009281977 -0.0029749253 0.011511609 0.057582077
0.01565759 0.0019029233 0.026821008 -0.0005659802 -0.024210166 0.02251161 0.05523178 0.011969982
-0.008077933 0.017465737 -0.0148253525 0.018166767 -0.013499549 0.004141294 0.09376984 0.03955889
0.057568073 -0.01570983 -0.008258181 -0.020631595 0.0037248079 -0.026184173 -0.019453581 -0.007897044
0.026893944 0.04245497 -0.019002771 -0.011701611 0.025391947 0.021583665 -0.0094516985 -0.012361977
0.0105090365 0.0153629 0.0117077725 0.01255248 0.0039135693 0.0053038904 -0.00080178987 0.027792495
-0.0015952166 -0.03341772 0.0063932873 0.013298142 -0.00334997 -0.0043085637 -0.0015033424 0.098289974
-0.0072135376 -0.0091960635 0.022476504 0.04426052 0.013604966 0.007730226 -0.0022800488 0.01158243
0.0008448979 0.00013688944 -0.0023265055 -0.010201582 0.10341559 -0.026674751 -0.0042514675 0.009718067
0.0056013847 0.019819768 -0.0012858779 -0.013993502 -0.009748147 -0.01099031 -0.0018106634 -0.003766648
-0.003300244 0.000282879 -0.029502725 -0.006945154 -0.006162019 -0.01971574 -0.021325318 -0.0009095704
0.036272608 -0.021303656 0.009255854 -0.02083123 -0.0055150944 0.0095791 0.00892911 -0.0077597415
0.017685123 0.00628836 -0.005692311 0.0115587795 -0.0069891736 0.0066045336 -0.009450586 -0.0129114
0.010717342 0.004582122 -0.0030534067 -0.021129005 0.003722833 0.01348555 0.0071529425 -0.00130641
-0.0111434795 -0.029323077 -0.015232367 -0.007089453 0.07321606 0.006862929 -0.006192885 0.0037602866
0.008317198 -0.020944545 0.057729498 -0.014363153 -0.0036527934 -0.0052433377 -0.008890814 0.026099011
00000000: f61f 15bc edb0 753c fa42 61bc 9205 873d
00000010: 4727 48bb 4303 81bc a766 893d d3f8 92bb
00000020: e20e ae3d 8b46 b4bc fa8b c03b e428 82ba
00000030: ba17 1c3c 6be5 94bb f6e6 2ebc aca8 253c
00000040: 7e36 5cbb b38b 243d 2914 cebb cdf2 04bc
00000050: 0ef6 c93b 9796 093c ce13 823c 5ac9 363c
00000060: f6c6 153c d1b8 503c 9c8e 0a3d 861f de3c
00000070: 4902 d93c fbc2 b13d 0e4e 353c f328 5b3c
00000080: 623e 0b3b b53d 143d 447f bcbc c9c7 6e3c
00000090: 767c 6ebc 7976 e1bb 34c3 913c d4e0 ae3c
000000a0: 8950 3bbc cdf0 85bb 9241 15bc 8ed6 efbb
000000b0: 772e 59bc 9310 bebb 713b f73b 57f4 ec3b
000000c0: 4f03 b53c 143c 5ebc 10cd d93a 8c2d 993b
000000d0: d739 21bc 66e2 22bc 75be fe3b 633b 1abc
000000e0: 1611 77bb 294a e6bb 002b 053d a0ef 84bc
000000f0: becb 2f3d bddc b5bc f9a0 093c c23b c5bc
00000100: a843 e6bc 71a6 fb3b 2694 3dbc 968f cabb
00000110: d035 d23b 4239 033c 08de 8dbb 884a 22bb
00000120: afb9 a83b 666c 4f3c f871 d8bb d211 f83b
00000130: 6631 c5bb 2d26 b6bc c826 48bc fda0 6fbb
00000140: 9119 0abc bb97 6b3c ed1a cbbb e26a 253e
00000150: 3bbb c53a 794a 143c 8f61 7bbc 5b2c b6bc
00000160: 47b5 c2bc 0f31 a43c caed f03c b0d8 993b
00000170: 350f 463b 406c 5ebc c844 6cbc 8b16 543b
00000180: c05c 873b f456 0e3d cd09 69bb 29b1 703d
00000190: f63a 363b cb86 5bbb 4969 853c 7911 fa3b
000001a0: 9322 893d e059 353c 793a cebc ed54 813c
000001b0: fed7 90bc 829b a93c f503 e73c d151 0dbc
000001c0: 659c 55ba 96c9 48bc 6cf8 5cbc 1b28 983c
000001d0: 2198 313c 4aaf 92bb 0c64 223c 701e c83b
000001e0: b780 39bc 5808 ba3b 1bd3 c73b 6f53 c1ba
000001f0: e5d7 a0bc 956f fcbb ffcb 883c 0153 3bbc
00000200: 7168 4f3d 693e 8ebb 1af7 3a3d 4e8e 403c
00000210: 6f13 183c f7f6 42bb 309b 3c3c 2fdb 6b3d
00000220: 5944 803c 836b f93a bbb7 db3c 4a5e 14ba
00000230: 6654 c6bc 456a b83c b83a 623d be1d 443c
00000240: 4f59 04bc 4e14 8f3c 09e6 72bc 79d2 943c
00000250: 362d 5dbc b1b3 873b 670a c03d 8108 223d
00000260: 80cc 6b3d e7b1 80bc 524d 07bc 9703 a9bc
00000270: e81b 743b 3180 d6bc 1e5d 9fbc 9a62 01bc
00000280: b050 dc3c 43e5 2d3d b3ab 9bbc 1db8 3fbc
00000290: c602 d03c 3ad0 b03c 4cdb 1abc e489 4abc
000002a0: 182e 2c3c acb4 7b3c f5d1 3f3c eba8 4d3c
000002b0: 663d 803b 42cc ad3b 352f 52ba 16ad e33c
000002c0: 9616 d1ba 05e1 08bd c87e d13b 73e0 593c
000002d0: 2c8b 5bbb da2e 8dbb cd0b c5ba 414c c93d
000002e0: 8a5f ecbb 16ab 16bc a520 b83c 854a 353d
000002f0: 5de7 5e3c d64d fd3b df6c 15bb 3cc4 3d3c
00000300: 237c 5d3a fb89 0f39 4978 18bb 8924 27bc
00000310: 8ecb d33d 0285 dabc e54f 8bbb 8738 1f3c
00000320: d28b b73b 115d a23c e78a a8ba 0045 65bc
00000330: b1b6 1fbc b410 34bc c853 edba ded9 76bb
00000340: e848 58bb 604f 9439 b3af f1bc 2d94 e3bb
00000350: c3ea c9bb e782 a1bc 6fb2 aebc 3c70 6eba
00000360: 9692 143d 0185 aebc dea5 173c 41a6 aabc
00000370: f7b7 b4bb a8f1 1c3c 674b 123c 6e45 febb
00000380: 64e0 903c 960e ce3b 9186 babb 0961 3d3c
00000390: 7005 e5bb d86a d83b a1d6 1abc 568a 53bc
000003a0: ca97 2f3c a025 963b aa1b 48bb bc16 adbc
000003b0: c6fa 733b 7ff2 5c3c 3b63 ea3b d83b abba
000003c0: 2493 36bc f336 f0bc 2e91 79bc a44e e8bb
000003d0: 4df2 953d 6ce2 e03b afed cabb 246f 763b
000003e0: db44 083c e593 abbc c475 6c3d 6e53 6bbc
000003f0: b463 6fbb 4ed0 abbb c7aa 11bc 98cd d53c

embeddings.weight f4 [768, 256]
1.2109092 0.3953923 0.03682229 -1.2528595 -0.23126002 1.4062903 0.87083817 0.29941326
0.008373184 -0.29000735 -0.21811666 -2.8311245 1.7128533 0.9441672 -0.00028606536 0.0164521
0.33357573 0.9837858 0.79289144 0.56666696 0.47567362 0.0068342127 2.2348423 0.22855085
-0.08634116 -0.025144102 0.97068334 -1.2380667 -1.4961774 1.6744969 -0.10603821 -0.025155194
0.71733856 -1.2231718 0.15924178 -0.92808414 -0.55092806 -0.9668818 0.24158624 -0.039497927
-0.22706322 -1.1209575 2.0286243 -0.2358579 -0.012992591 0.93579644 -0.33937404 0.3648152
-0.6061471 -0.15238267 -0.2497693 -0.72764546 0.19484168 0.51644135 -0.8757838 0.54369986
0.8708746 0.017635865 0.6790538 0.052996945 1.1799908 -0.12316727 0.47876078 0.8603166
0.20477866 0.16733898 0.08755263 -0.6645371 1.2079839 7.2694005e-05 -0.7520162 1.9987866
-0.75195104 0.48266903 0.7538489 -0.7555383 -1.1793545 1.1528163 -0.39528963 0.5104931
0.21465601 0.74892825 -0.20741072 0.5591123 -0.08614904 -1.1074166 0.17981522 0.07727927
1.0546832 -0.051862184 1.226986 0.49263132 -0.6558166 -0.02102136 0.032367602 -0.6143103
1.0144482 -0.85890573 -1.5840416 -1.4127711 -1.2915393 0.32233378 0.12691753 -1.5053078
0.045113247 -0.9123219 0.49997166 -0.7857285 0.116586246 -0.524581 -0.2295151 -0.14964302
-0.72800845 0.23914142 0.28465042 -0.19938236 0.112201564 -0.20369323 0.8365678 -0.7853389
0.09141505 -0.5687432 0.3465101 -0.0926467 0.1139191 0.9396744 -0.31221235 0.30251503
-1.0335996 -0.0029434762 -1.2643219 -1.0673835 0.83523524 -1.0080093 -1.3194969 -1.0523494
-0.07510617 0.6236984 0.048611872 -0.013633904 -0.68678606 0.015342105 1.0064061 0.35213318
0.025381798 -0.4552344 0.5094823 -0.7173083 0.16568367 -1.6405306 -0.9576433 0.6516359
-0.0310597 0.028648596 -0.37276855 -0.028140351 0.55332 -1.0465763 0.11158642 -0.13915326
0.06129956 0.24028468 2.4201124 -0.17217244 -0.08473832 -0.873065 -0.33254173 0.28521052
-1.2451676 -0.019812565 0.74581164 -0.15500389 -0.27939883 -1.7215561 -0.024493834 -0.48698795
0.21947733 -0.28351155 0.8168563 0.13784038 2.436224 -1.1457715 0.8524236 1.5642632
1.0329568 0.75265443 0.71071553 -0.0011184007 -1.1032412 0.16324922 0.18606864 0.18233883
0.47967675 -1.9199594 1.0403692 -1.4108464 0.23792575 -0.19100899 0.47446814 1.2950177
-0.0013383158 -0.005854376 0.60991 -0.64164424 0.48871863 1.7037191 1.2182531 -0.035425812
-0.0019129745 -0.80293584 -0.34530827 -2.1610746 0.034317497 0.079161376 -1.8320835 0.008894501
-1.769234 -0.22167419 0.18229616 -0.27720648 -1.6371105 -0.07945396 -0.14131007 0.0820464
-0.09504416 -0.95165175 0.9965779 -0.24526502 -0.5110467 1.2250955 0.39805 0.52930474
-1.2051431 -1.1156582 -0.5513103 1.1625401 0.74725884 -0.0809585 -0.20029446 0.22828618
0.14625905 0.81398803 2.358697 0.46784174 0.17752753 -1.3817623 0.038029466 -2.314932
0.33897334 0.06912802 -0.5108273 -0.578824 0.009388345 0.53153455 0.011607778 -0.18152969
00000000: 13ff 9a3f dc70 ca3e f8d2 163d b35d a0bf
00000010: 6dcf 6cbe 5201 b43f 40ef 5e3f b24c 993e
00000020: ae2f 093c d87b 94be f959 5fbe 2531 35c0
00000030: c73e db3f f1b4 713f 0bfb 95b9 8ec6 863c
00000040: 70ca aa3e 63d9 7b3f effa 4a3f 1611 113f
00000050: 7e8b f33e 88f1 df3b a807 0f40 3c09 6a3e
00000060: a2d3 b0bd 01fb cdbc b47e 783f f878 9ebf
00000070: be82 bfbf ea55 d63f 902a d9bd 4412 cebc
00000080: 80a3 373f e590 9cbf 4710 233e ec96 6dbf
00000090: 9f09 0dbf 9185 77bf 6262 773e 94c8 21bd
000000a0: 4383 68be 897b 8fbf fbd4 0140 bc84 71be
000000b0: e0de 54bc 5b90 6f3f 6fc2 adbe 0fc9 ba3e
000000c0: 752c 1bbf 340a 1cbe 86c3 7fbe f946 3abf
000000d0: 9484 473e 8035 043f 5e33 60bf ea2f 0b3f
000000e0: a3f1 5e3f 1779 903c 78d6 2d3f 5313 593d
000000f0: f009 973f 1f3f fcbd 2220 f53e b53d 5c3f
00000100: 7fb1 513e e95a 2b3e cb4e b33d 1a1f 2abf
00000110: 379f 9a3f 4c73 9838 2284 40bf 3dd8 ff3f
00000120: dd7f 40bf 6520 f73e 3efc 403f f56a 41bf
00000130: 17f5 96bf 7c8f 933f 6763 cabe adaf 023f
00000140: c9ce 5b3e c3b9 3f3f 7a63 54be fc21 0f3f
00000150: e86e b0bd d4bf 8dbf 7b21 383e 9844 9e3d
00000160: dcff 863f 716d 54bd e10d 9d3f 2c3a fc3e
00000170: 99e3 27bf fd34 acbc e493 043d 7143 1dbf
00000180: 70d9 813f 3fe1 5bbf e0c1 cabf afd5 b4bf
00000190: 2951 a5bf ef08 a53e abf6 013e edad c0bf
000001a0: abc8 383d ee8d 69bf 49fc ff3e 8125 49bf
000001b0: c5c4 ee3d f14a 06bf 0206 6bbe 053c 19be
000001c0: c35e 3abf 7de1 743e b3bd 913e e42a 4cbe
000001d0: efc9 e53d f594 50be 4f29 563f f80b 49bf
000001e0: d037 bb3d 2899 11bf c669 b13e 8ebd bdbd
000001f0: 6b4e e93d 808e 703f 4cda 9fbe 40e3 9a3e
00000200: fe4c 84bf 56e7 40bb 4dd5 a1bf 06a0 88bf
00000210: fad1 553f 7306 81bf 46e5 a8bf 63b3 86bf
00000220: 43d1 99bd b3aa 1f3f 3e1d 473d bd60 5fbc
00000230: 36d1 2fbf 745d 7b3c ead1 803f cd4a b43e
00000240: 7ded cf3c 7c14 e9be 6f6d 023f 84a1 37bf
00000250: fba8 293e e8fc d1bf 1c28 75bf 9cd1 263f
00000260: e970 febc 76b0 ea3c 85db bebe 9886 e6bc
00000270: 61a6 0d3f 36f6 85bf 6c87 e43d 317e 0ebe
00000280: 3f15 7b3d 300d 763e 1fe3 1a40 f94d 30be
00000290: 498b adbd 3081 5fbf e942 aabe 1d07 923e
000002a0: a761 9fbf f64d a2bc 83ed 3e3f 57b9 1ebe
000002b0: 5d0d 8fbe f35b dcbf 4ba7 c8bc 7c56 f9be
000002c0: aabe 603e 6d28 91be 7f1d 513f 0726 0d3e
000002d0: 18eb 1b40 a4a8 92bf 6f38 5a3f c739 c83f
000002e0: ee37 843f f6ad 403f 74f1 353f 4d97 92ba
000002f0: 0237 8dbf ce2a 273e c788 3e3e 08b7 3a3e
00000300: 3198 f53e 3bc1 f5bf d12a 853f 9d96 b4bf
00000310: cfa2 733e dc97 43be 7ded f23e 24c3 a53f
00000320: 6d6a afba 11d6 bfbb 1023 1c3f cc42 24bf
00000330: 5439 fa3e 7813 da3f b8ef 9b3f a81a 11bd
00000340: c6bc faba 348d 4dbf 3fcc b0be 0c4f 0ac0
00000350: 8190 0c3d 5c1f a23d b681 eabf 3eba 113c
00000360: 4276 e2bf 8ffe 62be d8ab 3a3e 02ee 8dbe
00000370: d68c d1bf c2b8 a2bd 96b3 10be f107 a83d
00000380: 83a6 c2bd 739f 73bf bb1f 7f3f c126 7bbe
00000390: f5d3 02bf eecf 9c3f 36cd cb3e 8480 073f
000003a0: 2142 9abf e3cd 8ebf ac22 0dbf 1dce 943f
000003b0: 5b4c 3f3f 92cd a5bd fe19 4dbe dac3 693e
000003c0: efc4 153e 8561 503f e4f4 1640 f488 ef3e
000003d0: c7c9 353e 96dd b0bf c9c4 1b3d d927 14c0
000003e0: ea8d ad3e fe92 8d3d 94c5 02bf cf2d 14bf
000003f0: 93d1 193c a612 083f 8d2e 3e3c ebe2 39be

extra_fc.weight f4 [256, 3]
-0.062686324 0.10353621 -0.5002586 -0.52563006 -0.07360666 0.039434075 0.06256276 -0.3725574
-0.3009604 0.22129802 -0.28498128 0.010657882 -0.16406432 -0.36074954 0.2758819 -0.096617274
-0.26138932 0.51097965 -0.09990439 0.02720273 -0.1338085 0.060184624 0.016024584 0.20693783
0.107809976 -0.35557747 0.04189011 0.40514302 -0.37002718 -0.39409983 0.5638563 0.07043618
-0.28563055 0.43013278 0.069293305 0.0637002 -0.15610234 0.5687622 0.25024876 -0.5645343
0.26175526 0.13006239 0.19014269 -0.20418967 0.4619256 0.16831739 -0.37498605 0.22655587
0.10167625 0.5688261 0.36625817 -0.076658525 0.035312794 -0.4998154 -0.31857732 -0.05166016
0.48383394 -0.15074341 -0.06496157 0.24236244 0.30009535 0.13223337 0.124712296 0.54566216
-0.04609983 0.47897384 -0.028377911 -0.3026667 -0.1815842 0.07480947 -0.23920652 0.18130067
-0.13237324 0.039101165 0.49371475 0.12928002 0.22808504 0.41752297 -0.050208185 0.4056589
-0.12265766 0.42032227 -0.0050696926 0.139436 0.08321451 0.43760985 0.39476398 -0.036059145
-0.25965285 -0.41289157 0.32531986 -0.44810554 -0.111001775 -0.2886791 0.14334543 0.26493335
-0.2936216 -0.5319588 -0.497754 -0.44031087 0.55912197 -0.3439335 -0.08268457 -0.048019268
0.047049455 -0.5549301 -0.3605144 -0.26754344 0.4922086 -0.30213743 -0.44181105 0.21423106
0.27569503 -0.44377646 -0.23513965 0.01178641 0.1541062 0.06781383 0.4319278 -0.27605554
-0.0045212344 0.12226675 -0.52039945 -0.49333668 0.4099957 0.30755472 0.49495098 -0.300089
0.09398567 0.24618323 0.13296446 0.09422804 0.55334634 -0.18038015 -0.26630023 0.55587906
0.32772353 0.08717468 -0.31256574 -0.13930406 0.4458596 -0.35761663 -0.25702417 0.48443046
0.5204798 0.019501423 -0.44185466 -0.16512091 -0.011628484 0.41354144 -0.50097686 -0.44196272
-0.09272872 0.03005689 -0.21030402 0.54201144 0.5430967 0.5016876 -0.1278877 -0.3362286
0.19911702 -0.5514069 -0.08361845 0.07787499 0.38856202 0.49297935 0.16295594 -0.41993564
0.42826408 -0.42354244 0.40049836 -0.57392544 0.43159416 0.47911122 -0.31531763 -0.38633385
0.14577432 -0.5246369 -0.117030144 -0.41311488 0.50997347 0.5790429 -0.31328386 -0.20637386
0.15251157 -0.01654463 -0.2648019 0.37897053 0.07689412 -0.1328867 0.2941679 -0.38502735
-0.47216925 0.11581873 -0.39995536 0.31275183 0.4179276 -0.041689858 0.17700113 -0.00990993
-0.037966836 0.17518367 0.5357078 0.30551603 0.31794307 0.47098872 -0.32684216 0.3684185
0.5595744 -0.32825375 -0.52275306 -0.5047316 -0.14351268 0.2266331 0.06957348 -0.5092058
0.38318107 0.10514693 -0.51552474 -0.25372812 -0.3970241 -0.025677498 0.064466394 0.09780161
0.19835377 0.051683087 -0.31915 0.4613185 -0.45497918 -0.5458224 0.26344496 -0.5359825
-0.49128014 -0.36738464 0.28080198 -0.14199685 0.3332132 0.38552502 -0.061367843 0.53374976
0.0007489153 0.3273648 0.4327235 0.580849 -0.2701331 -0.21128817 -0.18074259 0.21689777
0.49351004 -0.02615796 0.5407445 -0.05745317 -0.42908767 0.14772286 -0.44356883 0.57714105
00000000: b061 80bd cb0a d43d f310 00bf b18f 06bf
00000010: 17bf 96bd a085 213d e820 803d d8bf bebe
00000020: 7b17 9abe f39b 623e 11e9 91be 669e 2e3c
00000030: 7a00 28be 2ab4 b8be 6440 8d3e 47df c5bd
00000040: d2d4 85be 90cf 023f ac9a ccbd 42d8 de3c
00000050: 1805 09be 2784 763d fd45 833c 83e7 533e
00000060: 7acb dc3d 400e b6be f794 2b3d e86e cf3e
00000070: 3474 bdbe 74c7 c9be e358 103f d840 903d
00000080: 2b3e 92be 5d3a dc3e a6e9 8d3d 4075 823d
00000090: 4bd9 1fbe 669a 113f 9b20 803e 5285 10bf
000000a0: c904 863e 132f 053e c4b4 423e 1917 51be
000000b0: 8381 ec3e 655b 2c3e 2cfe bfbe 43fe 673e
000000c0: a33b d03d 969e 113f 3186 bb3e 25ff 9cbd
000000d0: 26a4 103d cee7 ffbe 911c a3be 9b99 53bd
000000e0: 15b9 f73e 7b5c 1abe 920a 85bd dc2d 783e
000000f0: 19a6 993e 2f68 073e 2969 ff3d 84b0 0b3f
00000100: 2dd3 3cbd 0f3c f53e cb78 e8bc 21f7 9abe
00000110: 35f1 39be b535 993d 8ef2 74be e2a6 393e
00000120: da8c 07be 8b28 203d 2ec8 fc3e fb61 043e
00000130: 208f 693e 92c5 d53e 19a7 4dbd 86b2 cf3e
00000140: f033 fbbd 7b34 d73e aa1f a6bb 50c8 0e3e
00000150: 5e6c aa3d 660e e03e 811e ca3e c1b2 13bd
00000160: 38f1 84be 8666 d3be 5390 a63e 176e e5be
00000170: e654 e3bd bfcd 93be 25c9 123e 58a5 873e
00000180: 9255 96be 742e 08bf 9dd9 febe 6d70 e1be
00000190: 9e22 0f3f 0d18 b0be 8756 a9bd daaf 44bd
000001a0: eeb6 403d e60f 0ebf 5895 b8be 74fb 88be
000001b0: c402 fc3e c2b1 9abe 0f35 e2be 635f 5b3e
000001c0: e627 8d3e ab36 e3be 73c8 70be c91b 413c
000001d0: 04ce 1d3e fae1 8a3d a425 dd3e 2757 8dbe
000001e0: dd26 94bb fd66 fa3d e638 05bf a096 fcbe
000001f0: f5ea d13e d077 9d3e 376a fd3e 44a5 99be
00000200: 8f7b c03d 7517 7c3e d627 083e a1fa c03d
00000210: 1ba8 0d3f 93b5 38be 8158 88be 174e 0e3f
00000220: 61cb a73e a388 b23d 9e08 a0be b9a5 0ebe
00000230: b647 e43e 8719 b7be ac98 83be 4507 f83e
00000240: 2a3e 053f 73c1 9f3c c63a e2be 7515 29be
00000250: 6685 3ebc b4bb d33e 0540 00bf f048 e2be
00000260: 8ee8 bdbd de39 f63c f059 57be 43c1 0a3f
00000270: 6308 0b3f 996e 003f fef4 02be 2826 acbe
00000280: 55e5 4b3e 0129 0dbf 2640 abbd ec7c 9f3d
00000290: 9af1 c63e ca67 fc3e ecdd 263e ce01 d7be
000002a0: 6e45 db3e 8eda d8be 1f0e cd3e c7ec 12bf
000002b0: e9f9 dc3e 114e f53e 5071 a1be 8dcd c5be
000002c0: dd45 153e 9b4e 06bf 80ad efbd cb83 d3be
000002d0: 9f8d 023f 283c 143f be66 a0be ab53 53be
000002e0: fe2b 1c3e 9b88 87bc 1d94 87be 6d08 c23e
000002f0: aa7a 9d3d 7313 08be 2d9d 963e 4e22 c5be
00000300: 2bc0 f1be 5f32 ed3d f3c6 ccbe 0221 a03e
00000310: 9bfa d53e fcc2 2abd c93f 353e 425d 22bc
00000320: 1d83 1bbd 5963 333e 2524 093f 996c 9c3e
00000330: 6fc9 a23e 6f25 f13e db57 a7be 5aa1 bc3e
00000340: 4540 0f3f e010 a8be 25d3 05bf 1736 01bf
00000350: fdf4 12be 8212 683e 8a7c 8e3d 505b 02bf
00000360: 4f30 c43e 4657 d73d 6ef9 03bf a7e8 81be
00000370: be46 cbbe 9e59 d2bc f506 843d 364c c83d
00000380: 401d 4b3e a5b1 533d a167 a3be f031 ec3e
00000390: 08f3 e8be 04bb 0bbf 42e2 863e 2636 09bf
000003a0: 1289 fbbe d719 bcbe 47c5 8f3e 9f67 11be
000003b0: ec9a aa3e 8963 c53e d95c 7bbd d3a3 083f
000003c0: db52 443a 5c9c a73e ef8d dd3e 85b2 143f
000003d0: e34e 8abe ed5b 58be 9614 39be 731a 5e3e
000003e0: 59ad fc3e 3849 d6bc 3b6e 0a3f 0454 6bbd
000003f0: 61b1 dbbe a944 173e 741b e3be 84bf 133f

extra_fc.bias f4 [256]
0.5524635 0.065633185 -0.33855596 -0.25841132 -0.2625621 -0.023604317 -0.3054732 -0.16188833
-0.41887468 0.124587364 -0.49540696 -0.32993677 0.07408342 -0.5792888 -0.24567679 -0.33521762
-0.5372665 0.05955463 0.3356595 0.25501123 0.3989396 0.3562419 0.037666157 -0.13056843
-0.4026854 -0.39697638 0.43390468 0.55080503 -0.48971477 -0.23673557 -0.009201786 0.007932639
0.29719603 -0.06402806 -0.50032735 -0.47561848 -0.035104483 0.53479433 0.50893396 0.25282615
0.22357723 0.23354627 0.19078778 -0.060091164 0.23170283 0.0791283 0.1696481 0.407683
0.07432255 0.23655738 -0.16133402 0.15221901 -0.21990994 -0.48884997 -0.0018992833 -0.08031561
-0.24082273 -0.20325635 -0.21173564 0.057193883 -0.24522741 0.42425364 -0.4150391 -0.23132841
-0.29431915 -0.46063188 -0.10722991 0.06254682 0.5053068 0.20324107 -0.048022907 -0.52411693
0.23610565 0.31355068 -0.5477279 -0.18575904 0.4533412 -0.27803075 0.5369199 -0.048646014
0.41169918 -0.122168444 0.027102234 0.11010631 0.325841 0.1445335 -0.1881154 0.5393215
-0.120264366 0.59630585 -0.40635288 0.06482215 0.47568643 0.51752895 -0.08476184 0.51457804
0.13887751 -0.13946518 0.31471178 0.21852218 -0.11055297 0.05169469 0.34809387 -0.23899932
-0.079532206 0.14065494 -0.47406685 0.14339447 0.27502117 -0.5064253 0.12158004 -0.19210528
0.03804078 0.12320274 0.26889485 -0.43237573 -0.55221766 0.43981087 0.45501927 0.11746343
-0.57460773 -0.30325514 -0.26939362 -0.33401653 -0.3671191 0.49723384 0.34665596 0.25642094
-0.35071936 -0.49851248 -0.15626782 -0.034853816 -0.22914892 0.429914 0.5569831 0.49968123
0.0021790047 -0.25804642 -0.08078546 -0.54553556 -0.04939198 0.016999384 -0.110799566 -0.26411548
0.42306665 0.48995602 0.05487327 0.4752786 0.53138185 0.33635148 0.13264008 -0.20039119
-0.22041738 0.49321836 0.18462966 0.12193999 0.4152932 -0.21038121 0.3105919 -0.26970205
-0.124691196 -0.46856102 0.4555898 -0.33229584 0.25029343 -0.098465994 -0.4065811 0.23636904
0.23078664 -0.41180748 0.08750794 0.53353876 -0.029200586 0.5274947 0.33668834 0.021920254
0.5390971 0.01113573 0.36857662 0.18835776 -0.4888028 -0.30310664 -0.057903964 -0.0923439
0.4619331 0.1838827 -0.075526975 0.27270555 -0.057185844 -0.50575125 0.055560637 -0.083221085
-0.4986596 -0.19047171 -0.048371702 0.30662715 0.18712103 0.091177404 -0.5220619 0.16769083
0.16667305 0.25412226 0.16747409 0.038432404 -0.016914006 0.1337268 -0.42833292 -0.2993864
0.3559884 0.5038762 0.106920645 0.15702592 0.42510587 0.013430404 -0.11095156 0.17805962
-0.119015485 0.30244327 0.2928903 0.10021216 -0.38161504 0.047298677 0.17349225 -0.25031015
0.15320346 -0.19926459 0.3187151 0.46186936 0.28984904 0.1283327 0.24242078 0.13820882
-0.066164054 -0.42866763 0.15830743 -0.5730855 -0.16541365 0.27782506 -0.3754337 0.008611922
-0.39267078 0.3027502 0.44901994 -0.5637178 -0.3832423 0.5047416 -0.06351058 -0.54713345
-0.4479465 0.5393399 0.5338159 0.01921581 -0.21618295 0.35501635 -0.46198562 -0.46097976
00000000: 3f6e 0d3f b16a 863d 3557 adbe 7d4e 84be
00000010: 8a6e 86be d75d c1bc fc66 9cbe 0ec6 25be
00000020: be76 d6be a927 ff3d fba5 fdbe 79ed a8be
00000030: 0cb9 973d 454c 14bf b292 7bbe a5a1 abbe
00000040: 4c8a 09bf 8eef 733d 90db ab3e d590 823e
00000050: d041 cc3e 5765 b63e d447 1a3d bbb3 05be
00000060: c82c cebe 7d40 cbbe c128 de3e 8f01 0d3f
00000070: e5bb fabe cf6a 72be 16c3 16bc e6f7 013c
00000080: 142a 983e 2521 83bd 7415 00bf 4484 f3be
00000090: b8c9 0fbd 48e8 083f 7f49 023f 6e72 813e
000000a0: 6ef1 643e c126 6f3e df5d 433e 2722 76bd
000000b0: 8243 6d3e 050e a23d 3bb8 2d3e d4bb d03e
000000c0: 6c36 983d 193c 723e bf34 25be 4ddf 1b3e
000000d0: 1230 61be 8b4a fabe 5ff1 f8ba 837c a4bd
000000e0: 3c9a 76be 6f22 50be 3ad1 58be 2244 6a3d
000000f0: e51c 7bbe c637 d93e 0180 d4be 5be1 6cbe
00000100: 00b1 96be f1d7 ebbe 5b9b dbbd 8c18 803d
00000110: c95b 013f 6d1e 503e abb3 44bd 872c 06bf
00000120: aec5 713e b789 a03e e537 0cbf 9e37 3ebe
00000130: 561c e83e 0c5a 8ebe 9573 093f 0b41 47bd
00000140: 3cca d23e 7333 fabd 8105 de3c 6b7f e13d
00000150: a2d4 a63e 9700 143e 53a1 40be f910 0a3f
00000160: 2a4d f6bd 80a7 183f 7c0d d0be 7ac1 843d
00000170: 2c8d f33e c77c 043f 9e97 adbd 63bb 033f
00000180: e835 0e3e f6cf 0ebe e721 a13e 47c4 5f3e
00000190: 9869 e2bd d0bd 533d 5c39 b23e 3dbc 74be
000001a0: c8e1 a2bd d907 103e e4b8 f2be 00d6 123e
000001b0: 93cf 8c3e 17a5 01bf f5fe f83d 3fb7 44be
000001c0: a6d0 1b3d b851 fc3d 96ac 893e 5a60 ddbe
000001d0: 235e 0dbf e42e e13e 49f8 e83e ab90 f03d
000001e0: 7e19 13bf 4244 9bbe f6ed 89be 3704 abbe
000001f0: 09f7 bbbe 6f95 fe3e e47c b13e 9b49 833e
00000200: 7d91 b3be 073d ffbe ac04 20be e0c2 0ebd
00000210: 04a6 6abe b01d dc3e 7296 0e3f 38d6 ff3e
00000220: a2cd 0e3b a91e 84be d972 a5bd 38a8 0bbf
00000230: 3f4f 4abd 4b42 8b3c e2ea e2bd 253a 87be
00000240: 319c d83e 84db fa3e cbc2 603d b757 f33e
00000250: a408 083f 4336 ac3e cdd2 073e 5933 4dbe
00000260: 18b5 61be 1e87 fc3e 8f0f 3d3e acbb f93d
00000270: 4fa1 d43e 2c6e 57be e705 9f3e 6316 8abe
00000280: 195e ffbd 3be7 efbe 1143 e93e ae22 aabe
00000290: 7626 803e 8aa8 c9bd 662b d0be ba0a 723e
000002a0: 5553 6c3e 6ed8 d2be 5d37 b33d ff95 083f
000002b0: 1136 efbc e509 073f 6a62 ac3e 1b92 b33c
000002c0: 4402 0a3f a372 363c 13b6 bc3e dbe0 403e
000002d0: 5c44 fabe cb30 9bbe b52c 6dbd cc1e bdbd
000002e0: 7f82 ec3e bf4b 3c3e e3ad 9abd 10a0 8b3e
000002f0: b43b 6abd ea78 01bf 8d93 633d d16f aabd
00000300: 5050 ffbe 040b 43be 6821 46bd 3cfe 9c3e
00000310: a89c 3f3e 38bb ba3d d9a5 05bf 25b7 2b3e
00000320: 57ac 2a3e 501c 823e 547e 2b3e 4c6b 1d3d
00000330: 3e8f 8abc aeef 083e 744e dbbe 2d49 99be
00000340: 1d44 b63e 08fe 003f 36f9 da3d 67cb 203e
00000350: 7aa7 d93e 320b 5c3c 923a e3bd 4355 363e
00000360: 64be f3bd d8d9 9a3e b8f5 953e 083c cd3d
00000370: 0c63 c3be 42bc 413d f4a7 313e a728 80be
00000380: 5ee1 1c3e 040c 4cbe a02e a33e 247a ec3e
00000390: 1867 943e a669 033e 273d 783e 9d86 0d3e
000003a0: 0581 87bd 537a dbbe 581b 223e bbb5 12bf
000003b0: 3262 29be 163f 8e3e d938 c0be 0519 0d3c
000003c0: 250c c9be 1302 9b3e f1e5 e53e cf4f 10bf
000003d0: 5638 c4be bf36 013f d611 82bd f010 0cbf
000003e0: 3e59 e5be 2e12 0a3f 29a8 083f 796a 9d3c
000003f0: 105f 5dbe b4c4 b53e 6189 ecbe 8a05 ecbe

fc_out.weight f4 [1, 256]
-0.0041453703 0.0044322773 0.0027501474 0.00496486 -0.00034591235 -0.012507191 -0.004393473 -0.0019437706
-0.005862994 0.0029985344 -0.0014702918 -0.0055952454 0.0170269 0.0038036804 -0.003995573 0.009769876
-0.0039124824 -0.010643839 -0.018080447 -0.0006753069 0.011409377 0.0015867543 0.00027398014 0.010514076
0.005321495 0.015928634 -0.0019748183 0.01589299 0.027482433 -0.0046487697 -0.00019090703 0.010847922
0.009722621 -0.0065223044 0.0001874082 -0.0031526787 0.0018404941 0.0041327784 -0.004569281 0.0009861779
0.00032185015 -0.0117252115 -0.0017833009 0.0029194814 -0.0010166619 -0.0012918974 0.0039726696 0.009732917
-0.007089608 -0.020231877 0.0018539425 0.009602409 0.00043680985 -0.005052997 0.010302319 -0.0052719694
0.0005291347 -0.02553052 0.00701108 0.001232629 1.3142866e-05 -0.0030069996 -0.012890602 0.0012491286
-0.00494719 0.00073949195 0.005715557 -0.021447314 -0.0021342568 0.0010788457 2.7695693e-05 0.0046735993
0.002762614 0.0016880295 -0.013642111 0.017354224 -0.0076718945 0.0069235326 -0.019732324 -0.009479689
-0.008221839 0.0022444718 -0.019024191 0.008746135 -0.0014226262 0.01138438 -0.017676886 0.0042746565
-0.0013157713 -0.002452832 -0.00830701 0.021590855 0.0006874111 0.0005334463 -0.0141650215 0.0059250747
0.008074577 0.009906448 -0.010779626 0.006843839 0.0006444811 0.003998667 0.00759673 -0.013126881
0.020784942 -0.004991819 -0.00046268798 0.011986664 -0.008349094 -0.0007681955 -0.006314911 -0.026186034
-0.005252764 -0.0027425427 0.00070604665 0.016038623 -0.0022514318 0.00042400905 -0.012559559 0.0034235641
0.007961556 0.0012955144 0.017854469 -0.002587192 0.0024355412 -0.016305156 0.0034807925 -0.005255348
0.014193966 -0.004436584 0.00012761175 0.018082067 -0.0024253577 0.00044152877 0.017746616 -0.004228792
0.033555187 0.004256816 0.0020745764 0.0013673927 0.0033808271 -0.0019299282 -0.0024313496 0.011501275
-0.013976556 0.0041150246 -0.00056750904 0.002581901 0.004938441 -0.011518249 0.0038362835 -0.0043244646
-0.0035393473 -0.0010896988 -0.01655324 0.00037433486 -0.005265616 -0.0023619458 0.0014201734 -0.004178926
-0.0074539282 0.014045013 0.0067772716 -0.0044867685 0.0014819808 0.010217721 -0.026189527 -0.018842386
-0.0030529937 0.027584055 -0.0017421592 4.2282492e-05 -0.0059502893 0.019894721 0.00049504405 0.020311756
0.00858737 -0.0110340305 -0.003076595 0.015597728 0.0016692819 -0.011738086 -0.0036762154 0.0021824157
-0.010956873 -0.0035317135 0.023717752 -0.012515318 0.014013032 0.0032698263 -0.013159877 0.0052420394
-0.0067154863 0.00019147388 -0.00010334364 -0.0050974605 0.0115990685 -0.00338439 -0.00091688806 -0.005394881
0.003477646 -0.0063437535 -0.00045202696 0.0003910773 0.0013678574 -0.0010184136 -0.0040282947 -0.005231593
-0.003888425 -0.0060810037 0.0040752133 -0.01498245 -0.0070625385 -0.012477127 7.998028e-05 0.0031811907
-0.0020819004 -0.0031078937 -0.007811023 0.0032829104 0.0034684518 0.014212212 0.0028636884 -0.00024841604
0.024797298 0.00060275244 0.006183033 0.0040664547 0.003002828 -0.0006936517 -0.0010070497 -0.0004855625
0.014913831 -0.0038996662 0.00028006357 -0.015712967 -0.0058162273 0.0016239359 -0.008999057 0.0023742032
-0.00091889105 0.0014656652 -0.007796833 -0.02309986 -0.013986243 -0.011349505 -0.0013537515 0.0004958846
0.011722327 -0.0015428931 0.008705738 0.014595109 -0.0061087674 0.0019597323 0.0026649635 0.013711639
00000000: e3d5 87bb a33c 913b d13b 343b 44b0 a23b
00000010: 925b b5b9 f6ea 4cbc 1ff7 8fbb 1ec6 feba
00000020: 5c1e c0bb 0f83 443b ceb6 c0ba 5258 b7bb
00000030: ff7b 8b3c 2b47 793b 4ced 82bb d411 203c
00000040: 4834 80bb 7f63 2ebc 721d 94bc 1407 31ba
00000050: 65ee 3a3c a4fa cf3a fea4 8f39 3b43 2c3c
00000060: ef5f ae3b c47c 823c f46b 01bb 0432 823c
00000070: d722 e13c b554 98bb 372e 48b9 7cbb 313c
00000080: a14b 1f3c 0eb9 d5bb 0183 4439 2c9d 4ebb
00000090: bc3c f13a 426c 873b e8b9 95bb a442 813a
000000a0: ffbd a839 1a1b 40bc a6bd e9ba c554 3f3b
000000b0: 8341 85ba e254 a9ba 2b2d 823b d076 1f3c
000000c0: f14f e8bb 52bd a5bc fdff f23a 6c53 1d3c
000000d0: a003 e539 9c93 a5bb 0fcb 283c 7cc0 acbb
000000e0: a1b5 0a3a 6225 d1bc 34bd e53b 2a90 a13a
000000f0: 2e80 5c37 1511 45bb 1b33 53bc cdb9 a33a
00000100: 0a1c a2bb 77da 413a 9149 bb3b 47b2 afbc
00000110: e3de 0bbb 0e68 8d3a 0c54 e837 fe24 993b
00000120: f90c 353b df40 dd3a 2983 5fbc 722a 8e3c
00000130: 8464 fbbb cdde e23b afa5 a1bc b350 1bbc
00000140: e4b4 06bc fd17 133b 9fd8 9bbc f34b 0f3c
00000150: 6a77 baba 8d85 3a3c 1ecf 90bc 6b12 8c3b
00000160: f575 acba b1bf 20bb 201a 08bc 4edf b03c
00000170: 6133 343a fad6 0b3a 6814 68bc 2127 c23b
00000180: 3b4b 043c a84e 223c 079d 30bc 4842 e03b
00000190: 65f2 283a 4007 833b fded f83b 2112 57bc
000001a0: 2f45 aa3c 6a92 a3bb ee94 f2b9 b663 443c
000001b0: a3ca 08bc ba60 49ba 50ed cebb 1884 d6bc
000001c0: 611f acbb 3bbc 33bb fd15 393a 6e63 833c
000001d0: c28c 13bb 884d de39 9cc6 4dbc e05d 603b
000001e0: 3071 023c 40ce a93a 8943 923c e18d 29bb
000001f0: 9a9d 1f3b 6492 85bc 021e 643b 0e35 acbb
00000200: cf8d 683c c460 91bb 85cf 0539 d820 943c
00000210: c0f2 1ebb fd7c e739 5a61 913c ae91 8abb
00000220: 2a71 093d c37c 8b3b 9ef5 073b 163a b33a
00000230: de90 5d3b a5f5 fcba 4757 1fbb d86f 3c3c
00000240: edfd 64bc 54d7 863b e3c4 14ba 1c35 293b
00000250: a5d2 a13b 0ab7 3cbc 286a 7b3b 3db4 8dbb
00000260: 65f4 67bb 39d4 8eba a99a 87bc 6042 c439
00000270: 308b acbb e0ca 1abb 1d25 ba3a 5fef 88bb
00000280: 1540 f4bb 0e1d 663c e013 de3b be05 93bb
00000290: 063f c23a 3a68 273c 6b8b d6bc 595b 9abc
000002a0: bc14 48bb f5f7 e13c 2a59 e4ba 7b58 3138
000002b0: a5fa c2bb 41fa a23c d8c5 013a d764 a63c
000002c0: 0ab2 0c3c 14c8 34bc b3a0 49bb 9d8d 7f3c
000002d0: cecb da3a 1a51 40bc a9ec 70bb dc06 0f3b
000002e0: 7584 33bc 5274 67bb bb4b c23c 0c0d 4dbc
000002f0: eb96 653c 954a 563b 869c 57bc 6ac5 ab3b
00000300: 950d dcbb 61c6 4839 32ba d8b8 9908 a7bb
00000310: 050a 3e3c a4cc 5dbb 515b 70ba 8bc7 b0bb
00000320: 38e9 633b 43df cfbb 08fe ecb9 8209 cd39
00000330: ae49 b33a 4a7c 85ba c9ff 83bb c86d abbb
00000340: f2d4 7ebb 2843 c7bb 5e89 853b f378 75bc
00000350: de6c e7bb dd6c 4cbc 16bb a738 867b 503b
00000360: 7e70 08bb cead 4bbb 9cf3 ffbb 1926 573b
00000370: f74e 633b 56da 683c b8ac 3b3b d63d 82b9
00000380: b423 cb3c 0802 1e3a 0a9b ca3b e53f 853b
00000390: 18cb 443b 2dd6 35ba fbfe 83ba 1893 feb9
000003a0: 2459 743c 8b91 7fbb 7fd5 9239 7bb8 80bc
000003b0: 0d96 bebb 3fda d43a c870 13bc 8598 1b3b
000003c0: bce1 70ba 901b c03a 937c ffbb eb3b bdbc
000003d0: 8e26 65bc 46f3 39bc 5d70 b1ba 41fe 013a
000003e0: 010f 403c e73a caba 83a2 0e3c 5320 6f3c
000003f0: 0e2c c8bb da6e 003b aba6 2e3b c8a6 603c
